public/ei-classifier-object-detection-tensorflow-lite-float32-model.5 (1).lite (tflite, 84716 bytes, 42 tensors)

model_1/bn_Conv1/FusedBatchNormV3 f4 [16]
00000000: b212 b4bf fc32 4f41 6443 0cc2 82a3 7ac0
00000010: 4820 fe3e 5aac df41 3812 2140 89e8 cb41
00000020: e8c8 54c0 7f11 17c0 e26a 4540 c8b3 cc40
00000030: 3885 9ebf e3cd 7e40 3ac6 2040 e3b5 08be
-1.4068205 12.949947 -35.06581 -3.9162297 0.49634004 27.959156 2.516737 25.488543
-3.3247623 -2.3604429 3.0846486 6.396946 -1.2384405 3.9813163 2.5120988 -0.13350634

model_1/expanded_conv_depthwise_BN/FusedBatchNormV3 f4 [16]
00000000: c629 9abe bafb 2440 74db 7f40 d937 6140
00000010: 2851 d33f 5616 5440 e39b a840 c6fa 7840
00000020: cc1b 33be a889 e43f 5640 cb40 60c3 9141
00000030: 69de a5be aa2f cb40 d075 0440 2b36 d5be
-0.30109996 2.5778642 3.9977694 3.5190337 1.6509142 3.3138633 5.269029 3.890306
-0.17491072 1.7854509 6.3516035 18.220398 -0.32396248 6.3495684 2.0696907 -0.4164289

model_1/block_1_expand_BN/FusedBatchNormV3 f4 [48]
00000000: 7b52 0840 f8e7 073d 03b3 4940 104b ed3f
00000010: 9c33 0240 f4ee 0440 8f72 7540 6cd8 59bd
00000020: 5392 293d d97e 3cbf bd06 c03f f78b 593f
00000030: da23 0e40 7913 26be 07e1 2840 36a4 5340
00000040: b210 06be fe5b 33bf 9dc7 5fbe d8a5 7840
00000050: b2d8 8e3f 112e 98bd 725e edba 05b5 2b3f
00000060: 7898 7140 c023 0ebf 1bdc 153e 2fd4 9d3f
00000070: ddcf 903f d42f 3c40 5144 3f40 0e1c 1540
00000080: 5208 413f 7756 4d40 a0bd 073e 01a5 9abf
00000090: 5401 c23f c1cf a13f 6ef2 c0be 7467 5d40
000000a0: e3ef 3340 3815 0d40 1e42 27be 4cb8 55bf
000000b0: 8245 a140 b102 bc3d 2cb5 3240 e4ec 663f
2.1300342 0.033180207 3.151551 1.8538532 2.0344 2.0770845 3.835117 -0.05318491
0.04139931 -0.73631054 1.5002056 0.84979194 2.2209382 -0.16218366 2.6387346 3.3068976
-0.13092306 -0.70062244 -0.2185349 3.8851223 1.115988 -0.074306615 -0.0018109812 0.6707309
3.774931 -0.555233 0.14634745 1.2330378 1.1313435 2.9404192 2.9885447 2.3298373
0.7540332 3.2084024 0.1325593 -1.2081605 1.5156655 1.2641526 -0.3768496 3.4594393
2.8115165 2.20442 -0.16333815 -0.8348434 5.039735 0.09180201 2.7923079 0.90205216

model_1/block_1_depthwise_BN/FusedBatchNormV3 f4 [48]
00000000: beec c140 49f2 8540 373a 0641 cd28 8140
00000010: af09 b0bc 009d 3840 d743 bf3e 1d9b 1840
00000020: d362 0140 be41 cd3f b976 3140 94a3 6ebe
00000030: c782 07c1 7181 34bf 2db3 2340 ea5f 4a3e
00000040: 9572 0fbf 1445 ad3f 2acd bfbe 24f4 f73d
00000050: e1ea edbf 3135 d340 1c01 d240 5017 0640
00000060: d415 99bf 9555 3540 18f0 0040 b7d5 8a3f
00000070: 6c11 53bf ea02 313f d9bf 55be e5ae 3bc1
00000080: f841 1e40 46ac ce3f 0232 fa3f 9eb3 123e
00000090: 49c6 833f 06c4 79be 21ae 9940 e9f0 7cc0
000000a0: 7b17 3f3f b8e9 78c0 1c06 20be f205 bd3f
000000b0: fad8 cfbe 2bb8 d340 826e cf3e 252a 74c0
6.060149 4.185826 8.389213 4.0362306 -0.021488992 2.8845825 0.37356445 2.3844674
2.0216568 1.6035688 2.7728713 -0.23304588 -8.469428 -0.7051001 2.557811 0.19763151
-0.56034213 1.3536706 -0.37461215 0.12107113 -1.8587304 6.600243 6.5626354 2.095173
-1.1959786 2.8333485 2.0146542 1.084647 -0.8244846 0.6914507 -0.20873965 -11.730199
2.4727764 1.6146324 1.9546511 0.14326331 1.0294887 -0.24391183 4.802506 -3.952204
0.74645203 -3.889265 -0.1562733 1.4767439 -0.40595227 6.6162314 0.40513998 -3.8150723

model_1/block_2_expand_BN/FusedBatchNormV3 f4 [48]
00000000: 5428 8a40 1cbf 1140 9f0b c53f f164 4d40
00000010: 9b56 1140 aeec a040 15b5 f4bf 5ef2 93be
00000020: a164 133f a69c ae3f a1e2 0d40 78c8 183e
00000030: 1a08 733f a728 f1be 056b e03e dbcd 67c0
00000040: 0eef d13f ea19 8840 5a5b 01bf 19e4 2c40
00000050: c3a1 9a3f 1513 803f d0b9 7e40 9a9b 07bf
00000060: 5b7c 993f c2cb 943f 5ab6 8140 c22e 6b40
00000070: 031d a0bd d9c2 27c0 77a2 523d c0ae 593f
00000080: ce6e fbbf e480 0d40 f9f8 883f 7a57 f03f
00000090: cd70 6b40 03eb ab3f 977e 1540 090c 9140
000000a0: 1b7a 15bf f827 3040 b2ac 013f 9ad0 c13f
000000b0: 520c 9b3f 18af 8a3f 948c 96bf 7c72 2940
4.317423 2.2772894 1.5394171 3.209286 2.270911 5.0288916 -1.9117762 -0.2889585
0.5757542 1.3641555 2.2169573 0.14920223 0.94934237 -0.47101328 0.4383165 -3.6219394
1.6401079 4.2531633 -0.50530016 2.701422 1.2080616 1.0005823 3.980091 -0.52971804
1.1991075 1.1624682 4.0535097 3.6747289 -0.078180335 -2.6212676 0.05142447 0.8503227
-1.964319 2.2109919 1.070098 1.8776696 3.6787598 1.3431095 2.3358514 4.532719
-0.58389443 2.7524395 0.5065414 1.5141785 1.2113135 1.0834684 -1.1761651 2.6476126

model_1/block_2_depthwise_BN/FusedBatchNormV3 f4 [48]
00000000: ed2d bec1 da65 e2bd 6624 d03f f840 1bbd
00000010: 6d1e fe3e d886 51bf 73c7 913f 8702 5e40
00000020: e093 563e 4559 9c40 2c13 2dbe 3fd4 8940
00000030: 06d5 c7bf ee69 4bbe 8df1 1f40 a1da cb3f
00000040: f01e b6bc 1742 6e40 4a1e 1840 0964 2240
00000050: 9190 343d 8a73 a4bd e4a2 05bc a603 0d40
00000060: b39b bdbf 8005 6640 21d6 0342 123c 6040
00000070: 28ca 0d3f 6ab5 4c3f b733 bcbe b7bf a03e
00000080: 152b 5d3f 0288 3c40 f8c9 99bf 241e 2340
00000090: 4056 38c0 ce3a 1e40 7b12 e3c0 9a0b 2640
000000a0: f607 4c40 7df5 b33f 04d2 d23f ca28 33be
000000b0: b6e3 1c40 0fa9 a93e 7b66 9b3e 6056 333b
-23.772425 -0.11054583 1.6261108 -0.037903756 0.49632588 -0.8184638 1.1388992 3.4689043
0.20954847 4.885897 -0.16901845 4.307159 -1.5611885 -0.19864628 2.499118 1.5926095
-0.022231549 3.7227838 2.3768487 2.5373557 0.04408318 -0.0802985 -0.008156512 2.2033477
-1.4813141 3.5940857 32.95911 3.5036664 0.5538659 0.79964316 -0.36758205 0.31396267
0.8639386 2.9458013 -1.2014761 2.5487146 -2.8802643 2.4723392 -7.096006 2.594458
3.187986 1.4059292 1.6470342 -0.17496029 2.4513984 0.33136794 0.30351624 0.0027364716

model_1/block_3_expand_BN/FusedBatchNormV3 f4 [48]
00000000: 56e4 6c3e 2331 303f ee54 0c3f 0b12 2a3e
00000010: ad63 0e40 db42 8140 55ba 8f3f 2a7a 6bbc
00000020: c991 95be 4808 d4be 4b4b 813f 2d94 8f3e
00000030: 30e5 a03f 7b4f 3e3f ab07 6840 4331 a23f
00000040: 0d4a f43e f6d8 cfbe 8917 69bd a2da 6c3f
00000050: 7e3b 17bf 1013 2540 8ca8 6b40 3b84 c73f
00000060: 24fd cc3f 5e79 b63d d890 df40 944d f03f
00000070: 0a3f e03f 5a86 5abe 6427 2840 7ade 993f
00000080: 5517 c23e 084e 4cbd 00ec 6c40 e69a e83f
00000090: 1fb8 b3bf a5b8 b23d 9c6b 1dbe c7f4 ed3f
000000a0: a5f4 263e 37e9 ffbd e983 94be 32d8 a03c
000000b0: 3bee f93f 397a b03f 52cb 663e aa27 963f
0.23133978 0.68824977 0.5481709 0.16608445 2.2248337 4.039411 1.1228739 -0.014372388
-0.29212788 -0.41412568 1.0101103 0.28042737 1.2569942 0.7434003 3.625468 1.2671283
0.47712746 -0.40595216 -0.05690721 0.9252111 -0.5907515 2.5792885 3.6821623 1.5587229
1.6014752 0.08909868 6.986431 1.8773675 1.7519238 -0.21340314 2.6274042 1.202102
0.37908426 -0.049879104 3.7019043 1.8172271 -1.4040564 0.087266244 -0.15373081 1.8590325
0.16304262 -0.12495654 -0.2900689 0.01963434 1.9525827 1.3787299 0.22538498 1.1730855

model_1/block_3_depthwise_BN/FusedBatchNormV3 f4 [48]
00000000: 106b 6f3e b1a4 0d40 36dc 3dbe 6e58 fa3f
00000010: e781 273f bdc9 2041 8a50 c6be e12b c140
00000020: 60dd f7bc f724 df3f c492 be3f 2837 10be
00000030: 4074 34bf 7e7a 9c3f b00c b7be 2087 a5be
00000040: 304f ec3b 8c05 4bbe 7058 c5be 8d7d bfbe
00000050: ceb3 22be 9592 b1be 4a00 8bbd 07de 3dc0
00000060: ccc1 cebe 3de2 8b40 9368 4740 9b48 ef40
00000070: 66ae b93e a051 953e 1671 c7be f455 eebd
00000080: ee5e a03f 0866 c63d f455 443f 9056 40bf
00000090: f5dc bb40 60d0 093d 66fe c240 3c9c ac3e
000000a0: d022 b03d f352 bf40 d0fa c0bd d074 cf3d
000000b0: ee52 2740 047d f4bd 9071 003e 8d9d 0640
0.23380685 2.213177 -0.18541035 1.9558237 0.6543259 10.0492525 -0.3873332 6.0366063
-0.030256927 1.7433156 1.4888539 -0.1408354 -0.70489883 1.2224882 -0.35751867 -0.32329655
0.0072115883 -0.19826335 -0.38544035 -0.37400475 -0.15888903 -0.34682146 -0.067871645 -2.9666765
-0.4038223 4.371367 3.1157577 7.477613 0.36265868 0.29163837 -0.38953465 -0.11637488
1.252897 0.0968743 0.76693654 -0.75132084 5.8707223 0.033645988 6.0935545 0.33712947
0.0860039 5.9788756 -0.09422839 0.10129702 2.6144366 -0.11937907 0.1254332 2.1033661

model_1/block_4_expand_BN/FusedBatchNormV3 f4 [96]
00000000: 395a 2540 e4d0 a73e df0a ae3f a8c3 0ebf
00000010: b46b cc3f a873 713f 945d 4840 e145 6040
00000020: a61f e4be 415d e83f 81a5 b73f 3ec6 563f
00000030: 6c6f 3040 3f70 9a40 8f65 03be c716 31bf
00000040: 7476 0f40 d8db 1540 666e ec3e ab82 0abe
00000050: fe41 8bbe e278 1f40 b3aa bf3f da46 473f
00000060: 2615 e33f 77eb 0440 7409 b83f e43a 633f
00000070: 55c8 fd3c 4533 a93c f845 b43f b214 f33f
00000080: 32b0 fb3f b0fe 873f 97cd d43f c1e7 a1be
00000090: 2959 0e40 816c 2840 e145 e93e 8a08 783f
000000a0: 39a3 ee3e e17b ef3f 4686 0840 2d19 3d3f
000000b0: a921 923f 579f 5040 87a3 3640 e0b4 ba3f
000000c0: 214f ca3f 1684 5b3f 306c f23d bd80 2dbf
000000d0: cd55 2a40 694e c93f 5c25 1540 8e22 ed3f
000000e0: ac2f c8bd 55a2 df3f 21fa 4d3f fd75 ce3f
000000f0: 8169 d83f 0584 ad3f 5b62 843f 9a0e 3040
00000100: 11fd 863f 9165 903f 310b f83f ebf7 a9be
00000110: 972e 2b40 752c 923f 3347 0140 817f fabe
00000120: 02ee c3be 3623 a73f 75bc da3e 327a a23f
00000130: c04c 1740 0ee1 8f40 2ece d63f ab21 9fbf
00000140: e3e2 893f 8201 04c0 c820 c1be 9116 873e
00000150: c2ee ce3f 12fd c73f 5741 d13f eb46 ad3f
00000160: 3908 d73f c73e cd3f b3f6 b13f 3d8d d93f
00000170: 52cb 0740 8376 3140 b4a3 3bc0 111b 5240
2.5836318 0.32776558 1.3597068 -0.557673 1.5970368 0.943171 3.1307116 3.504265
-0.44555396 1.8153459 1.4347383 0.83896244 2.7568007 4.826202 -0.1283171 -0.6917538
2.2416048 2.3415432 0.46177977 -0.13526408 -0.27198786 2.491753 1.4973968 0.77842486
1.7740829 2.0768716 1.4377885 0.88761735 0.030979315 0.02065433 1.4083853 1.8990691
1.9663146 1.06246 1.6625241 -0.31622127 2.224192 2.6316226 0.45561126 0.9688803
0.46608904 1.870968 2.1331954 0.7386654 1.1416522 3.2597253 2.853731 1.4586449
1.5805398 0.8574842 0.118370414 -0.67774564 2.6614869 1.5727054 2.3304052 1.852617
-0.09774718 1.7471415 0.8045979 1.6129757 1.6907197 1.3555914 1.0342516 2.7508912
1.054598 1.1280996 1.9378415 -0.3319696 2.6747186 1.1419817 2.0199707 -0.48925403
-0.38267523 1.305762 0.42721906 1.2693541 2.3640594 4.4962225 1.6781671 -1.243215
1.0772365 -2.062592 -0.37720323 0.26384404 1.6166613 1.5624106 1.6348065 1.3537267
1.6799384 1.6034783 1.3903412 1.6996228 2.1217847 2.7728584 -2.9318666 3.282902

model_1/block_4_depthwise_BN/FusedBatchNormV3 f4 [96]
00000000: 7b95 fc3f 66a8 87bf e04f 893f c40e 0840
00000010: 38a8 c8be 8fbb 56bf 734a 40c0 2965 123e
00000020: b0bb a3be 6a23 d03e 0acb cc3e 82a8 26bf
00000030: 4246 a43d 30e9 acbe 9323 853f 1223 3ebf
00000040: d654 2cbe 5063 b840 cb10 d33f f7a9 e73e
00000050: 04f9 0a3e a84a e3be c0fe 69bd 68d0 513e
00000060: 1239 6040 744e 87be 52ac 1fbe e839 45bf
00000070: afb7 22bf c280 68bf 0e44 343f 0aa2 bfbf
00000080: 1cfc ecbd 0ce4 97be 60ef 68bd 10df 1a40
00000090: b273 0b3f 46fd 04bf e55c 7a3f 9a7d 043e
000000a0: 5c4f 39be c48f 173f f975 42c0 f03b 9fbf
000000b0: ea8e a5bf 6325 8a40 e0c2 403c 3da1 6640
000000c0: c36f 2340 0a37 0cc0 6b3b d2bd 1c33 9b3f
000000d0: 68d9 c23f 5ab4 8c3d 8af1 acbf 5ffa 6b3f
000000e0: 8ec7 74c0 345e c13e fc23 a03e 88fa 35bf
000000f0: fc84 21bf 2aac 31be 9240 6bc0 eb49 50be
00000100: 37f4 b93e 5236 3f40 2076 3140 51bf ec3f
00000110: eede 87c0 48ae 80bc 0c58 d5bf ec96 57bd
00000120: b75e b640 96f0 983f d89a 533c 008c 783b
00000130: d8cd 2341 0238 1140 3847 3cbe 59e2 e5bf
00000140: c774 7dbe 808c 03c0 0296 243e 1ba9 0bbf
00000150: 8a3a cb3d 881f 9abd f585 7b3e c35e 42be
00000160: 80c6 403e 7544 a6be 2759 7abd d26b c8bd
00000170: eddf 32bd 8291 ccbe 54ed 9e3f eac0 8340
1.9733118 -1.0598266 1.0727501 2.1259012 -0.3919084 -0.8387994 -3.004544 0.14296402
-0.31979132 0.4065202 0.39998657 -0.6510087 0.08021213 -0.33771658 1.0401481 -0.74272263
-0.16829237 5.762123 1.64895 0.4524686 0.13571554 -0.44392896 -0.057127714 0.20489657
3.5034833 -0.26427042 -0.15593079 -0.7704148 -0.6356153 -0.9082147 0.70416343 -1.4971325
-0.115715235 -0.29666173 -0.05686891 2.4198647 0.5447341 -0.51948965 0.97797996 0.12938538
-0.1809668 0.59203744 -3.0384505 -1.2440166 -1.2934239 4.317064 0.011765212 3.6035912
2.5536964 -2.1908593 -0.10265239 1.2124972 1.5222597 0.06870337 -1.3511212 0.9217891
-3.8246799 0.37767184 0.31277454 -0.71085405 -0.63093543 -0.17350832 -3.675816 -0.20340697
0.36319134 2.9876904 2.7728348 1.8495885 -4.245963 -0.015708104 -1.6667495 -0.052634165
5.699062 1.1948421 0.012915336 0.0037925243 10.237755 2.2690434 -0.18386543 -1.7959701
-0.24751578 -2.0554504 0.16072848 -0.5455491 0.09923275 -0.07525545 0.2456282 -0.18981461
0.18825722 -0.32474104 -0.06112018 -0.0978619 -0.043670584 -0.39954764 1.2416177 4.117299

model_1/block_5_expand_BN/FusedBatchNormV3 f4 [96]
00000000: 2514 bd3e abe5 bd3f 2b69 f13f 30c9 1340
00000010: aab0 3e40 7f52 8dbf 4ab1 50bf db17 d03f
00000020: 22d4 1640 6672 afbf 4e23 2c40 ec36 643f
00000030: 782a a13f e0e2 1340 d49d 1840 14ee 0c3f
00000040: 889f dd3e fba6 9f3f 04b1 0f40 780a 9b3f
00000050: 5a7a a8bd c17d 793e a528 0040 dbf4 24bf
00000060: de32 2840 ad61 c83c 91b7 0f40 c34c b33f
00000070: 7ea8 d23f 5b89 6140 e65c 3240 f3d3 1e40
00000080: 25fd d13f f8f1 4dbe 0230 fd3f 2a05 1b3f
00000090: 6235 023f c737 bc3f 6cd2 2c40 7718 13bf
000000a0: 9a49 f23f 0fe3 cb3f c116 2c40 b7ef 85bf
000000b0: 919f 4f40 e972 c73f d661 de3f a8f3 2b40
000000c0: 5674 8340 55f4 0640 c47a 01be dd36 d53f
000000d0: f4b2 88bf 244b 9abd dbc5 87bf d2a5 8f3f
000000e0: a8b5 08be c9fd ef3f 233e 0340 98a4 b93f
000000f0: 441b cf3f 979f b03f bad2 b93f 8329 803f
00000100: fd12 1f40 4cb0 f43f 7582 a63f a72e aebf
00000110: 21c8 d83f 9477 3abf 7ddd 8c3f 23db ca3f
00000120: a89b 0440 ccbb 883f fc57 c7bf 7796 afbf
00000130: 578e d13f 0121 cb3d 6e5f 433f af41 cdbe
00000140: 33e9 0240 d8e6 d43f 0480 5c3f 0922 fb3f
00000150: 4244 943f d56e a73d 3220 1740 bdcf 7640
00000160: 9c57 b73f 5d13 1140 fcc1 a13f 8067 89bd
00000170: af13 bb3f 2a2c cd3f 48f2 8f3f 4af6 dc3f
0.36929432 1.4835714 1.886022 2.3091545 2.9795327 -1.1040801 -0.8152052 1.625728
2.3566976 -1.3706787 2.6896548 0.89146304 1.2591085 2.3107224 2.384633 0.5505078
0.43285775 1.2472833 2.2451792 1.211257 -0.08226462 0.24364378 2.0024807 -0.6443612
2.6281047 0.024460638 2.245579 1.4007801 1.645767 3.5240085 2.78692 2.4816864
1.6405379 -0.20111835 1.9780276 0.60554755 0.50862706 1.4704522 2.7003431 -0.57459205
1.8928711 1.5928668 2.6888888 -1.046378 3.2441142 1.5581943 1.7373607 2.6867466
4.107951 2.1086628 -0.12644488 1.6657368 -1.0679612 -0.07533863 -1.0607256 1.1222479
-0.13350546 1.8749324 2.0506675 1.4503355 1.6180196 1.3798703 1.4517434 1.0012668
2.485534 1.9116302 1.3008562 -1.3607987 1.6936074 -0.7283871 1.1005093 1.5848125
2.0720005 1.0682311 -1.5573726 -1.3717793 1.6371564 0.09918404 0.7631749 -0.40089175
2.0454834 1.6632948 0.86132836 1.9619762 1.1583331 0.081754364 2.36134 3.8564293
1.4323611 2.2668068 1.2637324 -0.06709194 1.4615382 1.6029103 1.1245813 1.7262661

model_1/block_5_depthwise_BN/FusedBatchNormV3 f4 [96]
00000000: ed48 1840 9a79 ba40 9086 02be f9ad 01bf
00000010: 37ef 5a40 f5e6 40bf 086a ba3c 951c 823d
00000020: b473 ad3f f35a 1e40 9256 4fbf d883 903c
00000030: 7482 0d3e d8b6 b53f 144f 1b40 5658 b2bf
00000040: 6bec 47bf a20e aabd 4201 1cbe 34e1 823f
00000050: 55a1 53bf 62d2 393f 6a0e 34bf 3ae5 303f
00000060: 880f b340 3c0b b03c eb5c 90bf 34db 5940
00000070: e219 953f 0c0f 1bc1 260a 363f 6410 b340
00000080: 7ecc 5340 0ca5 d4bf 87ac 083f f82b 093e
00000090: 90da 91bd 122b 64be eebd 5c3f da16 41bf
000000a0: c5bf b2bf 6cea 65be b460 d2bf 74c9 a53c
000000b0: a1db 4741 d4ae c7bd 5501 b93f a046 53bf
000000c0: fb78 33c1 4307 1c3e 8034 eeb9 7826 f0bc
000000d0: dcef eebe ab60 3540 48d7 57bf 58cc db3f
000000e0: da0a 2d40 a95a b8be fd9a 0240 6dc2 0a3e
000000f0: be17 3cc0 ff31 b5be be42 183e 30a1 bbbb
00000100: c80f a4be dcf3 fe3f f1d9 c7be 5eb4 06c0
00000110: b483 2bbf 8e03 e43e 4e86 9cbd 521c 29bf
00000120: 71cc 883e 885b f1bc 7887 3ebf 17ee e9bf
00000130: 892e 09be f49a d9bd 7fb4 2240 1816 a3bf
00000140: 0d60 b9bf de6c 52c0 be02 cebd 5e32 fbbd
00000150: f326 6440 d4a4 cabf 27b2 59bf 8924 98c1
00000160: 166f c8bf ff5b d03f e3d9 1cbf b8d8 8e3f
00000170: b444 cbbd b91a 98be 7bed 5cbf 7e62 683e
2.379451 5.827344 -0.12746644 -0.50656086 3.4208505 -0.7535241 0.022755638 0.06353108
1.3550935 2.474301 -0.8099147 0.017640993 0.13819295 1.4196424 2.4267015 -1.3933208
-0.7809512 -0.08303572 -0.15234855 1.0224977 -0.8266805 0.72586644 -0.70334494 0.6909977
5.595646 0.021489732 -1.1278356 3.404004 1.1648524 -9.691174 0.71109235 5.595751
3.3093562 -1.6612868 0.53388256 0.13395679 -0.071217656 -0.22282055 0.8622731 -0.75425494
-1.3964773 -0.22452706 -1.6435761 0.020237662 12.49112 -0.09750143 1.4453532 -0.8252964
-11.217036 0.15237145 -0.00045434013 -0.029315218 -0.46667373 2.8340251 -0.8431287 1.7171736
2.7037873 -0.36006668 2.0407097 0.1355073 -2.938949 -0.35389706 0.1486921 -0.005726002
-0.3204329 1.991817 -0.39033464 -2.1047587 -0.6699784 0.44533962 -0.07642804 -0.6605884
0.26718476 -0.02946259 -0.7442546 -1.8275784 -0.13396658 -0.10625258 2.5422666 -1.2741117
-1.4482437 -3.2878947 -0.10059117 -0.12265466 3.5648773 -1.5831552 -0.85037464 -19.01784
-1.5658901 1.6278075 -0.6126997 1.1159887 -0.099252135 -0.29707888 -0.86299866 0.22693822

model_1/block_6_expand_BN/FusedBatchNormV3 f4 [96]
00000000: 8871 1fbf f924 c73f 117e 1940 f1f7 6a3f
00000010: 34a0 85bf ceac c2bf a0ce 5440 00dc 313f
00000020: 0f4f 1b3f 3479 28bf 9a8d fe3f 761c 95bd
00000030: a78f 22c0 bc2d 3240 9fc6 4540 a591 963f
00000040: 091b f03f 3fbf b83f 4920 fcbf f63f d8bf
00000050: 0b8d 1a3f bdf0 2c40 3974 4440 c8c4 d63f
00000060: e714 3f3e f106 fe3e 3fa9 3f40 927c 8b3f
00000070: fccc 0f3f 1cfa f7bf a591 be3f c49d 44bf
00000080: 1d02 a2bd f9e3 933f 325f 233c a97d 753e
00000090: c85f f23f 8ead 8a3f c99b 1cbf 5f5e e23f
000000a0: b540 a03f d4ba 2440 566e c33f b0e0 1540
000000b0: 52d7 f13f eb58 823f e255 033f 49ac 0740
000000c0: 1606 af3f 1d56 a6bf 3aa6 cbbf aec3 613d
000000d0: becc 06be 755d 9abe 7f64 4a3f 35fb 4bbc
000000e0: 2854 ca3d 822a 8abe 617e c4bf c521 eb3f
000000f0: a02d 41bf 9848 273f e205 8cbe bb4a 4cbf
00000100: f4be f0bf bc6d f63f afb6 0b40 6ab7 c93e
00000110: cd64 90bf 5e91 9b3e 3d90 b83e f6d0 043f
00000120: acfa aa3f acd4 dfbe c1e9 1b3e 2e62 0a40
00000130: 1b3d ccbd a458 ef3f 74a3 e93f e658 39be
00000140: f0f2 bb3f 5e62 a43e 2712 bbbd 650d 7d3e
00000150: e476 e83f 895e 1840 daa1 1540 3c13 a13e
00000160: f39e 383f fe71 0440 4a4b c8bd c767 fbbf
00000170: 896a 583e 4c50 7dbf eb21 22bf 036a d1be
-0.6228261 1.5558158 2.3983195 0.9178458 -1.0439515 -1.5208986 3.3251114 0.6947632
0.6066751 -0.6580994 1.9886963 -0.07280819 -2.5400178 2.7840414 3.0902479 1.1763197
1.875825 1.4433364 -1.9697353 -1.6894519 0.60371464 2.7021935 3.0695937 1.6778803
0.18660317 0.4961467 2.994705 1.0897391 0.56172156 -1.9373202 1.4888197 -0.7680323
-0.07910559 1.1553947 0.009971427 0.23973717 1.893548 1.0834215 -0.6117521 1.768505
1.2519747 2.573903 1.5268047 2.3418388 1.8893836 1.0183386 0.5130292 2.1198905
1.3673732 -1.299503 -1.5910103 0.055118255 -0.1316404 -0.30149427 0.79059595 -0.012450029
0.09879333 -0.26985556 -1.5351068 1.8369681 -0.75460243 0.65345144 -0.27348238 -0.7980153
-1.8808274 1.9252238 2.1830251 0.39397746 -1.1280762 0.30384344 0.36047545 0.5188135
1.3357749 -0.43716943 0.15225889 2.1622424 -0.099725924 1.8698926 1.8253007 -0.18100318
1.4683514 0.32106298 -0.09134322 0.24712141 1.8161283 2.38077 2.3380036 0.31459987
0.7211754 2.0694575 -0.09779985 -1.9641045 0.2113439 -0.9895065 -0.63333005 -0.40901193

model_1/head/BiasAdd/ReadVariableOp f4 [32]
00000000: 3d16 00bc 1f59 013c b47e e03b d23e 833a
00000010: 41f9 b3bc 6632 9839 e277 853b 7800 c7ba
00000020: 601a b9ba 203d 673c c144 caba cfd4 333b
00000030: 9801 1ebc 7088 153b d0f6 a6bc c61a a43b
00000040: 788d 253b 0412 c33c 81f2 6cbb 2af3 55bb
00000050: 1bcb cebb f847 2dbb 7856 553b 1678 423a
00000060: 4b1a 263c 80d6 82bc 16cd 8dbc 3ff5 0abc
00000070: 27d7 d63b f6f3 273b 5f00 813c 2f43 023d
-0.007817802 0.007894783 0.0068510417 0.0010013229 -0.02196944 0.0002902925 0.004073129 -0.0015182635
-0.001412224 0.014113694 -0.0015431867 0.0027440076 -0.009643935 0.0022816919 -0.020381361 0.0050080745
0.0025261324 0.023812301 -0.0036155286 -0.0032646158 -0.006310833 -0.0026440602 0.003255276 0.0007418407
0.010138105 -0.015971422 -0.017309707 -0.008481323 0.00655641 0.002562759 0.015747247 0.031802353

model_1/expanded_conv_depthwise_BN/FusedBatchNormV3;model_1/expanded_conv_depthwise/depthwise;model_1/block_5_project/Conv2D f4 [1, 3, 3, 16]
00000000: e81c 09c1 1390 973d 5634 9cbe 516d d5bf
00000010: f79a b23e 5cd6 cabd 5a26 d53f bb0c 37be
00000020: 4bbb b8bd 3acd 08bd 1c03 9cbd af3b aa3f
00000030: ea37 7bc0 57ad 383d 350d 1a3f 0ac2 41c1
00000040: 16db 8040 8fa0 c93d 9c3c f0be cc77 d63f
00000050: 0a61 923f 382c 40be dfe9 2940 4017 99be
00000060: 8cfc adbd 7ab6 b03f 55e9 9cbf 93f3 1640
00000070: e084 4fc0 bd48 583d 57bf b53f 399e 82c0
00000080: 3321 f43f 7ddf c2bd 48ff ab3e 70dc d3bc
00000090: 9864 26bf 22c8 c93d de1b febf 20ba 3b3e
000000a0: 76cc c2bd fd3b 98be 5423 0e3d fa07 37bf
000000b0: 7694 f23f 7713 5a3c 4dfd 91bf 1907 99c0
000000c0: ba65 21c1 16fb 003f 43aa a4bd a91f 363e
000000d0: ad5d c9be 328a b83c 1ed2 1abf 3a8c 073d
000000e0: 4870 e4bc ddb8 b43b 938e df3c 6f46 a0c0
000000f0: 3cf8 c1bf 2933 aa3d 5d68 abbe ac72 13c0
00000100: 99f9 c6c0 8783 27be 6765 55be 30d1 43be
00000110: 4cb6 8abd d9f4 1cbd c24a 233e 5c6d 84bd
00000120: 8f33 debd dd8c 77bf ae61 4c3e 1081 0ebf
00000130: 88e6 4dc0 ecbb a3bf 72ed ba3b 51c5 7340
00000140: 5453 8e3f 41cb a03b ec09 783e cbd8 e63c
00000150: bc80 c83c be83 493d 7e6b 09bf 23a2 a13d
00000160: 54dd 02be 3e31 8f3d 30f7 9abc 64b9 843d
00000170: 6276 29bf 2563 ef3d 19d9 3ebd 96bf e540
00000180: 817c 12c1 2278 92be 20bd 823e 0fe9 eb3c
00000190: 20e4 69bd 23a0 683d 8a54 53bf 0952 fb3d
000001a0: 0018 9dbd 216b 683b 1ba4 4dbb 9796 433e
000001b0: b8b3 9e3f 6902 7e3c 2ae4 9bbe 5c45 7040
000001c0: 5f50 e83f 6d59 81bc 0cb2 f53d 7a4a acbc
000001d0: ab03 78be 254c 6f3d 3918 38bf 86ca 473d
000001e0: bad0 00be 038a 11be e040 65bb efe1 7540
000001f0: 4e78 e4bf 6b51 61ba 59d7 a4be 4270 93c1
00000200: 67fd d03f 5771 e0bc c714 953d 030a b4b9
00000210: ea27 1c3d 5fd1 a83c b030 3b3e 6f23 563d
00000220: 53e5 ecbd 89ab 403d a7ca 0ebc fd70 bac0
00000230: b2ac 5340 ad86 d43c 2a3e 3f3e aab9 a8c1
-8.569557 0.07400527 -0.3050868 -1.6673986 0.34883854 -0.09904167 1.6652329 -0.1787595
-0.09020098 -0.033398844 -0.076177806 1.3299464 -3.9252877 0.045087185 0.601764 -12.109873
4.026744 0.09845077 -0.4692124 1.6755309 1.1435864 -0.18766868 2.6548994 -0.2990055
-0.08495435 1.3805687 -1.2258707 2.3586166 -3.242485 0.052803744 1.4199017 -4.0818143
1.9072632 -0.09515283 0.33593202 -0.025861949 -0.64997244 0.098526254 -1.9852254 0.1833272
-0.09511654 -0.29733267 0.03470166 -0.71496546 1.8951557 0.013310305 -1.1405426 -4.7821164
-10.087336 0.50383127 -0.08040287 0.17785515 -0.3932928 0.022526834 -0.60476863 0.033092715
-0.027885571 0.0055152015 0.027289664 -5.008598 -1.515388 0.08310539 -0.3347806 -2.303874
-6.2179685 -0.16358767 -0.20839463 -0.19122767 -0.067730516 -0.038319442 0.15946487 -0.06466171
-0.10849678 -0.96699315 0.19959137 -0.55665684 -3.2171955 -1.2791724 0.005704575 3.8089182
1.111918 0.0049070423 0.24222535 0.028179547 0.024475448 0.049197905 -0.53679645 0.07892253
-0.12779742 0.06991814 -0.018916696 0.06480673 -0.6619626 0.11688832 -0.04659376 7.179637
-9.155396 -0.2860728 0.25534916 0.028797654 -0.057102323 0.056793343 -0.8255087 0.12271506
-0.07670593 0.0035464244 -0.0031378332 0.19100414 1.2398596 0.015503504 -0.30447513 3.7542334
1.8149527 -0.015789712 0.1199685 -0.021031607 -0.24220149 0.058422226 -0.7191196 0.048777126
-0.12579623 -0.14212804 -0.0034981295 3.841915 -1.7849214 -0.0008595201 -0.32195547 -18.429813
1.6327332 -0.027397795 0.072793536 -0.00034339735 0.038124003 0.020607648 0.18280292 0.052279886
-0.115671776 0.04703859 -0.008715308 -5.8262925 3.3074155 0.025943125 0.18676057 -21.090656

model_1/expanded_conv_project_BN/FusedBatchNormV3 f4 [8]
00000000: 4e8b c93e 2aa6 93c2 3ea5 8bc1 75e8 60c1
00000010: cdbf 1cc2 8bde 4ec0 2098 20c2 0146 efc1
0.39364094 -73.82454 -17.455685 -14.056752 -39.187305 -3.232333 -40.14856 -29.909182

model_1/block_1_depthwise_BN/FusedBatchNormV3;model_1/block_1_depthwise/depthwise;model_1/block_3_depthwise/depthwise f4 [1, 3, 3, 48]
00000000: 56e8 2cbe fef4 abbd e552 2cbd d489 86bd
00000010: 0812 163d 4018 a9be ab33 dabe a795 56be
00000020: ae71 ebbd f030 a2bd 02dc f93c ad9c 9c3d
00000030: d8ad 843e 4f89 85c1 159b ef3e f4c5 bbbe
00000040: 5457 53c1 36fb c4bd d69d 353e 079d 4fbd
00000050: 4ef6 c6bb f853 0fbf f736 5bbf c9db 00be
00000060: dc4a d8bd 309b f6be 7ce4 cfbd 1b50 3dbd
00000070: 2eed 7c3f 1bf1 d33c cf46 183e 7391 843e
00000080: cf2d 5dbf da9b 59bd dd65 dbbc cc18 343f
00000090: 6e54 503c 2130 8b3f 5d6d 2fbe 2142 cd3e
000000a0: 6a9b 2ebe a34a b6bd 00e3 393f 9e36 82bd
000000b0: 9d72 a6bc 7bac 09be 073c 60bf 343d 433f
000000c0: d6be 983e 4e0e 3c3d ec98 24be 2fa9 e8bd
000000d0: 0be4 913e b552 88bf 6ebe 2fbf 8522 7ebe
000000e0: 86c3 843e 9cd2 f0bd f195 d6be f7be 013e
000000f0: 82ca 923e facf 99c1 ac93 8abb f7f1 053f
00000100: 8ad5 c1c0 6c6a 01be 3bc2 8e3e da1f 7e3d
00000110: e863 503d 7f04 69bf 5f0f 7bbf 6d80 e6bd
00000120: 615b 52bc 3340 ffbe f787 40be aeee b4bd
00000130: 1d9c 40bf 2ca5 193d dcc6 b7bd d94f 073f
00000140: 0440 4a3e 850f 98bd 7569 8a3e 375d 903f
00000150: ab35 203c d4ef d03f a39e 00be affc 253f
00000160: 22e8 93be ed92 1c3d 8823 5b3f a53c 98bd
00000170: 9870 113c e65e b7bd dc1d a2bf ed8d 2c3f
00000180: 5299 01be 7c1f 283e 7cd7 093d 4db7 b8bc
00000190: ce6c a4be 706d 67bf e491 a1be 8da2 58bd
000001a0: 8640 bd3e a059 31bc b689 ecbe 5d5d 373d
000001b0: a5de 833d 08e6 85c1 c3f9 d3be 6355 c2bd
000001c0: 725a 6dc1 2b58 e1bc 3af6 023e 12e5 da3d
000001d0: c330 94bd 0f42 15bf 4d6c 8abe 3a9f 16bd
000001e0: 18aa 0cbd 1bec edbd 80ec b5bd 5f8a dabc
000001f0: 1bb2 09be b977 033d ab23 18bd 7a7b c33d
00000200: 9085 3a3f 273c 4ebd bf81 963e 6343 d23e
00000210: ca9a 263c 916e 4e3f cd3f 9fbb 218d a23d
00000220: 7249 34be 7a94 a83c ee21 053d 48a7 3cbd
00000230: da36 07be 7f17 b43c b1fd 0dbf 213a e63d
00000240: 6e25 acbe aa64 f3be d1f3 83be c95e 2ebe
00000250: db27 44bd ddd7 e93e d54b 083f ecac a4be
00000260: 1530 ddbd 4c2e 28be 838c 9abd 59fe 053e
00000270: 23fd 2d3f c8b6 72c1 289a e13d 54f2 56bf
00000280: 9dcf 62c1 0fe0 d9bd 233e d93e d539 26bf
00000290: 888e 493e cc4f 38bf 46f0 4bbf a5fd 52be
000002a0: c24e 003e e3c8 e9be 6b3d ffbd 78e4 aebd
000002b0: de1b e43f 14d2 dbbd 25ee 493e 9150 523f
000002c0: 8514 96be 6938 4abd c04e 76bd a0e6 913f
000002d0: ed79 ccbc 5d3a ddbf abcf 16be ae96 eb3e
000002e0: 590d bf3d 3d03 c43e 9db8 353f 8a0f 84bd
000002f0: 1d21 34bf 64ad eebe 6eda 503f c605 593f
00000300: 6619 fe3e 1378 a0be 4e86 38bf 625c ffbe
00000310: 71fe 223f 24ae ab3e cda3 003f 93d4 c7be
00000320: 5c91 dd3e c636 49be c4ed d1be 139d 173e
00000330: e26a 763f 9c1f 59c0 4a49 dfbc 69b2 8b3f
00000340: 98eb dfc0 3fca 14be 0a9d 1a3f 1366 8abf
00000350: 7507 1b3f dced 7fbf 62af 6bbf 0485 46be
00000360: 17b0 c23e 9a6b c1be 68d5 4bbe 8880 8cbe
00000370: f4ae d6bf 1883 6bbe eb75 e7bd eac7 9e3f
00000380: 20a4 473e bcad 86bd 9de8 093f cfcb dc3f
00000390: 8de5 45bd f40f 38c0 4cbb 07be 756c e93e
000003a0: a455 0c3e 44ab 4e3f 7173 603f a7f9 8cbd
000003b0: 4275 5cbf 8007 ffbe 18a6 9e3f f4ee 663f
000003c0: d957 53be 8b82 eb3d 129b b2be 6232 aabe
000003d0: f328 18bf a3ed 44be 52b5 293e 5cf0 ecbd
000003e0: 1f8d 093f fa72 f6bc cb26 8ebe 9799 213d
000003f0: d759 d83e fc32 83c1 82f8 d5bd ff11 c0be
-0.16885504 -0.08396338 -0.042071242 -0.065692574 0.03663829 -0.33026314 -0.42617545 -0.20955525
-0.11496292 -0.0791949 0.030500416 0.07647071 0.25913882 -16.692045 0.46798006 -0.36674464
-13.20882 -0.09618227 0.17735991 -0.050686862 -0.0060718423 -0.559875 -0.85630745 -0.12583841
-0.10561153 -0.48165274 -0.10151002 -0.046218973 0.9879941 0.025871804 0.14870761 0.2589222
-0.86398023 -0.053127147 -0.02678197 0.7035034 0.012715442 1.0874063 -0.17131563 0.40089515
-0.17051473 -0.089009546 0.72612 -0.06358074 -0.020318324 -0.13444702 -0.87591594 0.76265264
0.29833096 0.04591208 -0.1607396 -0.11360394 0.28494295 -1.065024 -0.6864995 -0.24817856
0.25930423 -0.117589206 -0.4191127 0.12670504 0.28670126 -19.226551 -0.0042290296 0.52322334
-6.057317 -0.12638253 0.2788256 0.062042095 0.050876528 -0.91022485 -0.9807033 -0.11254964
-0.012839169 -0.49853668 -0.18801866 -0.08834587 -0.7523821 0.037511036 -0.08973476 0.5285621
0.19750983 -0.07424835 0.27033582 1.1278447 0.00977842 1.632319 -0.12560515 0.6483869
-0.2888804 0.038226057 0.8560109 -0.07433442 0.008876942 -0.08953647 -1.2665362 0.6740406
-0.12656143 0.1641826 0.033652768 -0.022548342 -0.3211426 -0.90401363 -0.31556618 -0.052889396
0.3696329 -0.010824591 -0.46198815 0.044766773 0.064389504 -16.73732 -0.4140149 -0.094889425
-14.834581 -0.027507862 0.1278924 0.10688223 -0.07235863 -0.5830392 -0.27035752 -0.036772944
-0.0343419 -0.11617299 -0.088829994 -0.026677309 -0.13446848 0.0320966 -0.03714339 0.09545036
0.7286005 -0.050350334 0.29395863 0.41067037 0.0101687405 0.8063746 -0.0048599006 0.079370745
-0.17606142 0.020578612 0.03250306 -0.04605797 -0.13204518 0.02198386 -0.5546523 0.11241556
-0.33622307 -0.47537738 -0.25771955 -0.17028345 -0.04788957 0.45672503 0.5324071 -0.3216318
-0.108001865 -0.16423911 -0.07546332 0.13085307 0.6796438 -15.169624 0.11015731 -0.83963513
-14.175687 -0.10638439 0.4243022 -0.64931995 0.19683278 -0.7199676 -0.79663503 -0.2060457
0.12530044 -0.45661077 -0.124628864 -0.08539671 1.7821004 -0.107334286 0.19719751 0.82154185
-0.2931253 -0.049370203 -0.060133696 1.1398506 -0.024960482 -1.7283436 -0.14727657 0.46013397
0.09328718 0.3828372 0.7098482 -0.06448276 -0.70363027 -0.46616662 0.815833 0.84774435
0.49628752 -0.3134161 -0.7207993 -0.4987517 0.63669497 0.33531296 0.5024994 -0.3902937
0.43274963 -0.196498 -0.41001713 0.14806013 0.9625684 -3.3925543 -0.027256627 1.0913821
-6.997509 -0.14530276 0.6039587 -1.08124 0.60558254 -0.9997232 -0.9206449 -0.19386679
0.3802497 -0.37777406 -0.19905627 -0.27441812 -1.6772141 -0.22999227 -0.11301788 1.2404759
0.19496202 -0.06576106 0.53870565 1.7249697 -0.04831462 -2.8759737 -0.13255042 0.4559056
0.13704544 0.8073008 0.8767615 -0.06883555 -0.8611642 -0.4981041 1.2394438 0.90208364
-0.2063898 0.114995085 -0.34883934 -0.33241564 -0.59437484 -0.19231276 0.16573074 -0.115692824
0.5373096 -0.030084122 -0.27763972 0.039453115 0.42256042 -16.399895 -0.1044779 -0.3751373

model_1/block_1_project_BN/FusedBatchNormV3 f4 [8]
00000000: 43db fac0 ca3a 9fc1 0f3b cf41 3e08 bf41
00000010: 3ed2 7f40 8cc0 fd3f d727 1e42 095a 9540
-7.8392653 -19.903706 25.903837 23.879025 3.9972072 1.9824386 39.538906 4.6672406

model_1/block_2_depthwise_BN/FusedBatchNormV3;model_1/block_2_depthwise/depthwise;model_1/block_3_depthwise/depthwise f4 [1, 3, 3, 48]
00000000: 0fd0 c63d 1f49 f9bc be4d 143e d20b 533f
00000010: a99c 673c 6a35 e83e 7e4f 10bc 1804 dc3d
00000020: f149 8a3d 2b13 2e3d 5ad2 f53c 90ad 313d
00000030: a4fa 94bd c680 75bd d5ba 2bbe 152f c43c
00000040: 3769 84bc 617a 403d c276 5cbd fa8d 87bf
00000050: 3e7c 5cbd 8497 80be 0170 1a3f c951 1ebd
00000060: 8bb4 79bc 1f1d 093d 9d2b 28be 6c96 2e3d
00000070: e58c b4bc f0df 223d 2393 a33d f7a2 653f
00000080: 18a6 8a3e 8999 803e 0374 8a3e 8d9c 28be
00000090: dafe 503c 937f 493e f0b7 96bc f102 a73a
000000a0: 0230 3c3d 3a0b 26be 0b3e 43bd 9c75 42bd
000000b0: 1dbf fa3d 6575 453c e854 62bd 6627 fdbc
000000c0: cc56 1c40 d7d6 c13d 098f dc3d 465b 75bf
000000d0: e0ad d83d 37bd f83e 5f90 113e 1764 2c3d
000000e0: f720 0b3f 5c79 2c3f a202 c43c d285 843e
000000f0: efc0 f9be ccd5 24be d804 9f3c acd1 bf3c
00000100: b5c8 263f 4434 a5be 3fe7 0dbe e057 08bf
00000110: d48c 48bf 915c 963e da3b 04bf 0341 5d3d
00000120: 7aae 0d3e f530 c13e c20a 74bf 8c64 d3be
00000130: 6b67 013e 634e 293e 2f4a 4d3d 7d4f 90bf
00000140: 9e32 933d db02 0abf 6e03 6a3f ea41 5d3d
00000150: f3e7 d6be 8f55 86be 8a16 a1bd b125 ca3d
00000160: 6be8 56be e723 6dbe f99c 24be 60f1 753c
00000170: c084 78be e865 1bbd db96 70bf 4416 973d
00000180: 291c 1abf 2d36 d8bc 31ed 653d 2750 e53d
00000190: edf6 39bb 470f ba3e 243e 503d 146d 8d3d
000001a0: 3fba f43d 884d 333d 6405 39bd 154c 403e
000001b0: a57b 0bbe 02a8 afbc e87a 723d b8ea 353c
000001c0: 8b5e 09bf 0152 283e 4153 15bc 83e3 363f
000001d0: 91c9 7abe d89a 06be 045c a9bd bc65 d7bc
000001e0: d969 e5bc 5ed2 9dbe 8d1f adbd 1775 123e
000001f0: 7adc adbd 3bb9 283d 0fc3 b53c 462e 52be
00000200: 3fbd d73d ba7f 57be 0032 ea3d 1e56 e9bd
00000210: 5642 34bc f21f 8b3e 7bc6 0e3f 23e0 29bc
00000220: c273 073e c50b bc3d ae6a a6bd d1b8 733d
00000230: e03d a0be a160 4b3c a5ab 51bc 9ef8 93bc
00000240: 5218 1a40 0284 743d 3fa0 b73b 7b98 3dbf
00000250: b038 523d abef 1abe fb86 e73e 4e4c 7dbd
00000260: 2014 253d e39f 3e3d 0954 21bd 7b68 a43e
00000270: 50ee 89bd 0046 7abb 67ac 8c3d c8a7 bcbd
00000280: 4da2 89bb c4a7 92be 596d 0ebe 2e5f 4dbf
00000290: e764 9b3d b24d 58bf 6b14 16bf 414d 8dbd
000002a0: c6be 343d e804 073f 7b99 e4be 0d52 20bf
000002b0: 9a6c 31bd 5ce0 803e 3530 713d 99fb 7bbf
000002c0: 21cb 623e d2b6 eebe 3b06 aabc 0f55 3b3f
000002d0: abf5 fabc 33a7 a93e 6d50 0dbf 2e3c 0e3d
000002e0: e6ee 28be 584d 9abe 3748 533e ff49 f4be
000002f0: bf9b a2be bb7b 83bd 07fb bfbd 6af4 63bc
00000300: cf80 013f ef69 a1bf 4154 65bf 5b50 5d3f
00000310: 85e9 f6be 058d 36bf 7a6f d3bf 954d f8be
00000320: 49eb 0ebf 3d86 03bf 8430 d43e fc3a 44bf
00000330: d0b8 9f3f a395 5d3f 6277 053e e87d b7be
00000340: c192 ddbe 924f 3b3f 7a95 973e 49cd 7ebf
00000350: fdc9 7b3f 1252 bc3f b718 083f d706 f83e
00000360: d94b 7a3f 9260 2dbf 4b66 75c0 1e16 123e
00000370: 20b1 2cbf 66d6 7bbf c3d8 fa3e 492d 943f
00000380: 1c29 d8bf db89 8f3f 92ea 5abe 79de 74be
00000390: b76f aa3f 22ba 38bf b1c0 db3f 3902 df3d
000003a0: 4ca8 ac3e 5680 44be 0bc7 2e3f 8913 2e3f
000003b0: 60e5 683f b0f6 0bbf 66bc 3f3f 4d51 ae3e
000003c0: 3604 853f 3925 5e3d 4aa0 af3e bd88 cbbd
000003d0: 0a40 973c 486a aebe 2be3 113f 009b 923d
000003e0: 1919 d6bd 8bfa 9c3d b65d adbe d1ba 44bd
000003f0: f501 5fb9 e486 8abe efea f23e ca5e 5b3c
0.09707653 -0.030430375 0.14482781 0.8243991 0.014136472 0.45353252 -0.008808015 0.10742968
0.067523845 0.04249875 0.03000753 0.043378413 -0.072743684 -0.05993726 -0.1677049 0.023948232
-0.016163452 0.04699171 -0.053824194 -1.0590203 -0.053829424 -0.25115597 0.60327154 -0.038652215
-0.015240799 0.033475038 -0.16422887 0.042623922 -0.02203984 0.039764345 0.079870485 0.8970179
0.27079844 0.25117138 0.27041635 -0.1646597 0.012756074 0.19677572 -0.018398255 0.0012741965
0.04594422 -0.1621522 -0.04766659 -0.047475442 0.12243483 0.012051915 -0.055256754 -0.030902576
2.4427977 0.094648056 0.10769469 -0.958424 0.10580039 0.4858186 0.1421523 0.04208764
0.54347175 0.6737268 0.023927037 0.25883347 -0.4878001 -0.16097182 0.01941149 0.023415409
0.65150005 -0.32266438 -0.13857745 -0.53259087 -0.78339887 0.29367498 -0.51653826 0.054017078
0.13836089 0.37732664 -0.95328915 -0.4128765 0.12637107 0.16533808 0.050119575 -1.1274258
0.07187389 -0.5391061 0.91411483 0.05401794 -0.41973838 -0.2623715 -0.07865627 0.0987047
-0.20987098 -0.23158227 -0.16075505 0.015011162 -0.2426939 -0.037938982 -0.9398019 0.07377294
-0.6019922 -0.02639302 0.056134406 0.111969285 -0.002837594 0.3633978 0.050840512 0.069055706
0.11949586 0.04377511 -0.045171157 0.18779023 -0.13621385 -0.021442417 0.059199244 0.011103325
-0.53659886 0.16437532 -0.009114088 0.71440905 -0.24490954 -0.13145006 -0.08269504 -0.026293628
-0.028004574 -0.3082456 -0.084532835 0.14302479 -0.08489318 0.041192275 0.022187738 -0.20525464
0.10534143 -0.21044818 0.11435318 -0.11393379 -0.011002144 0.2717281 0.5577161 -0.01036838
0.13227752 0.09181932 -0.08125816 0.059502427 -0.31297207 0.012413175 -0.012797271 -0.018062886
2.4077344 0.059696205 0.0056038196 -0.7406079 0.051323593 -0.15130489 0.4522017 -0.061840348
0.040302396 0.0465392 -0.039386783 0.32110962 -0.067349076 -0.0038188696 0.06868821 -0.09211689
-0.004200256 -0.2864362 -0.139089 -0.8022336 0.07587605 -0.84493554 -0.58624905 -0.06899501
0.04412725 0.5274186 -0.44648346 -0.626252 -0.04331646 0.25171173 0.058883864 -0.9843078
0.221478 -0.46623856 -0.020754924 0.73176664 -0.030634722 0.33135375 -0.55200845 0.03472536
-0.16497383 -0.30137134 0.20633017 -0.47712705 -0.3175945 -0.06420084 -0.093740515 -0.013913253
0.5058717 -1.2610453 -0.89581686 0.8645074 -0.48225036 -0.7130893 -1.6518395 -0.4849669
-0.55827767 -0.51376706 0.41443264 -0.76652503 1.2478275 0.8655645 0.13033822 -0.35838246
-0.43276027 0.7316829 0.2960623 -0.9953199 0.98355085 1.4712546 0.5316271 0.48442718
0.97771984 -0.6772548 -3.8343685 0.1426625 -0.6745777 -0.9837402 0.489935 1.157632
-1.6887546 1.1213945 -0.21378544 -0.23912992 1.3315343 -0.72159016 1.716818 0.10889096
0.3372215 -0.19189581 0.68272465 0.6799856 0.90975 -0.5467329 0.7489685 0.34046403
1.039191 0.054234717 0.34301978 -0.0993819 0.018463153 -0.3406546 0.56987256 0.0715847
-0.10454006 0.07664975 -0.33860558 -0.048029725 -0.00021267666 -0.27056038 0.47444865 0.013389299

model_1/block_2_project_BN/FusedBatchNormV3 f4 [8]
00000000: fc4f 80c1 db2b 9041 b5e9 9fc1 fae9 94c1
00000010: 8647 7f41 cd02 9ac0 8121 b341 6907 2242
-16.039055 18.021414 -19.989115 -18.614246 15.954962 -4.812842 22.39136 40.507236

model_1/block_3_depthwise_BN/FusedBatchNormV3;model_1/block_3_depthwise/depthwise f4 [1, 3, 3, 48]
00000000: 48c9 5e3e 063a 3bbe 172f 293f e981 513e
00000010: 0a92 ac3e 9ebe f4bd d9f7 183f 6d49 b9be
00000020: b7ec 823e 4ff0 53be 7df1 49be e16d 6b3e
00000030: 5992 073e 70a2 93bd 476e 27bf 2f92 1fbf
00000040: c31f 533f d6fe 9c3e d8dd c13e 3e76 093f
00000050: c347 903e 38c8 b7be 5881 e3be 08ce 993e
00000060: b334 13be c3b0 29be 9614 87bd 0668 55be
00000070: bfd6 d1be c157 8c3e be17 c1be fbab 23bf
00000080: 7587 dbbc 0c60 713e e7af b63d d51e 453e
00000090: 8b15 6fbe ae01 573e eaf8 9ebe c24b 98bd
000000a0: 61a7 7a3e 122d a3be 6fd6 3c3e 1019 823e
000000b0: 6c3c 33be 2b9c 843d de90 bc3e 5fd4 67bd
000000c0: c612 843e 0469 45be f230 5e3f e98f 7f3e
000000d0: 038c f9be 9642 77be d218 a6be f52d f4be
000000e0: d594 d43e 4eed 6fbe e14a 1fbe d203 b63e
000000f0: dd64 533e 65e4 41be 0e3a 5fbf df6a 1f3f
00000100: 5f3a 9ebe 7be5 bc3e 7d27 253f f28a 5f3f
00000110: 17e5 bb3e 1c16 0fbf 4b19 933e 2132 d73e
00000120: e263 65be 8433 a1be 770b 93bd 9e0d 85be
00000130: 2939 b03e 5e9d b33e edbd 3dbe 7ede 36bf
00000140: c42f 48be 0188 e73e ae65 da3d e36b 823e
00000150: e44a 97be f98e a83e 28be 00bf d7a6 44bd
00000160: 0804 be3e 1cc2 d0be d7a0 893e 05cf ba3e
00000170: 3b40 0abe 0887 43bf b1fc e83e d398 32be
00000180: 0e76 e53d 573f bbbd e5b3 f43e e8ad d93d
00000190: fe54 e23d 7291 11be 1bee 89be d927 5dbe
000001a0: fd99 423e 8254 84bd 2dc1 733c 621f 283e
000001b0: 0aeb 943d 1f9c 08be 4db7 ffbe c994 23bc
000001c0: fee1 debe f16c 0f3e 877a 8b3e 4101 f03e
000001d0: 694b 153e 51cf 89be 3fcc 2e3e 6166 183e
000001e0: fd4c 00be e817 3abe 99a6 36bd d049 92bd
000001f0: 2876 443e fe92 0d3e ad71 033f c433 00bf
00000200: cd89 47be 8a0a 793e 711e 3e3d 2729 d03d
00000210: 4722 dfbd 3cad 1d3e 29d5 6abe a524 0dbd
00000220: 2763 493e 1bbc 34be 0a59 e63d 8a5b 363e
00000230: 8018 4dbc 1edd 63bd d699 353e ce5a fdbd
00000240: 8f6a 953e ab95 5fbe 5a23 90be 1d5d 8c3e
00000250: f020 b03e baf1 91be 7741 383f 065f 01bf
00000260: c3ff bf3e 09ff 83be d6d4 38be 4738 cc3e
00000270: 517c 5d3e 0aaf 46be d625 08be bac2 5fbf
00000280: 8b80 813f f971 d03e da3b 143f 9cfc 85be
00000290: f3f5 b93e 75d4 053f c55c 31bf 3823 dc3e
000002a0: 2c41 a33e 2b86 9cbe d07c c7bd 8998 a3be
000002b0: fa09 47bf d0d2 c23e dc5e d4be badf 51bd
000002c0: 4946 4bbe 301b ca3e c38e 0e3e 47a4 953e
000002d0: b524 9ebe e2ff 9e3e 86c7 fabe e551 983e
000002e0: 4ec6 d53e 0126 e2be 4b0e 933e e236 c03e
000002f0: 4375 27be 1876 283f 5887 e73e ac74 1dbe
00000300: 7d49 d03e a0fb 81be 6b70 e1be 3ca5 bd3e
00000310: 53ad 4ebf f32b e2be 5f1b 04bf 64d0 37bf
00000320: c7d2 0d3f d0df 92be f22e a2be 6a9e 1e3f
00000330: b461 ab3e 711f 64be 530a 51be 8cb1 293f
00000340: 416e 07bf 596c fd3e 44a4 7e3f 2875 abbe
00000350: 6135 0d3f 1743 1d3f 01ec c03e c610 403f
00000360: 7d29 0e3f 37bc 03bf 37d8 05be 041c d5be
00000370: 315a a93e 587c 123f 5ae5 2fbe 605a b53d
00000380: c5e4 94be adab 373f 5603 2b3e 23e0 c53e
00000390: 2a8b f0be 008a 003f f917 45bf ff1b d93e
000003a0: cd69 1f3f 8556 0dbf 6e41 d13e d507 073f
000003b0: 738b 70be 2c9f 82bd 3db1 1d3f 21f9 5bbe
000003c0: 992b 4c3e d67a 1fbe f740 61be 09ee 483e
000003d0: 881e 673e fe90 61be cece 8cbe dd14 b5be
000003e0: 2784 773e fc24 cabd 4b51 1dbe 9d7f 8e3e
000003f0: 9ea1 003e f2da babd 05ed 11be 75e1 a13d
0.2175647 -0.18283853 0.6608748 0.20459713 0.3370517 -0.1195042 0.59753186 -0.36188832
0.25571224 -0.20697139 -0.19721027 0.22991134 0.13239421 -0.07208717 -0.65402645 -0.62332433
0.8247034 0.30663174 0.37864566 0.5369605 0.2817975 -0.35894942 -0.4443462 0.30040002
-0.14375572 -0.16571335 -0.06595723 -0.20840463 -0.4098415 0.274107 -0.37713426 -0.63934296
-0.02679799 0.23571795 0.089202695 0.19250043 -0.23348062 0.20996734 -0.3104928 -0.07436325
0.24477912 -0.31870323 0.18441175 0.25409746 -0.17503518 0.06475099 0.36829275 -0.056599017
0.25795573 -0.19278342 0.86793435 0.24957241 -0.48739633 -0.24146494 -0.3244081 -0.47691312
0.415198 -0.23430368 -0.15555908 0.3554979 0.20643945 -0.18934782 -0.8719796 0.6227245
-0.3090391 0.3689383 0.6451338 0.8732139 0.3669822 -0.5589311 0.28730235 0.42030433
-0.22401384 -0.31484616 -0.07179921 -0.25986952 0.3441861 0.35081 -0.18529482 -0.71433246
-0.19549471 0.4522095 0.10663925 0.25472936 -0.29549325 0.3292158 -0.50290155 -0.048010673
0.3711245 -0.40773094 0.26880524 0.36486068 -0.13501064 -0.76377916 0.45505288 -0.1744111
0.11204158 -0.091429405 0.477935 0.10628873 0.11051367 -0.14215639 -0.26939473 -0.21597232
0.19004054 -0.06461431 0.0148776 0.16418222 0.07271393 -0.13340805 -0.49944535 -0.009984204
-0.43531793 0.14006402 0.27241918 0.46875957 0.14579548 -0.26915982 0.17070101 0.14882804
-0.12529369 -0.18173182 -0.044592474 -0.07142985 0.19185698 0.13825604 0.5134533 -0.5007899
-0.1948616 0.24320427 0.04641575 0.10164099 -0.1089521 0.15398115 -0.22932877 -0.034458775
0.1966673 -0.17649882 0.112474516 0.17808357 -0.012518048 -0.055630796 0.17734465 -0.12370835
0.2918286 -0.21834438 -0.2815197 0.2741479 0.3440013 -0.28504735 0.7197489 -0.5053562
0.37499818 -0.25780514 -0.1804994 0.39886686 0.21629454 -0.1940271 -0.13295683 -0.87406504
1.0117353 0.40711954 0.57903826 -0.26169288 0.36320457 0.5227731 -0.6928218 0.4299562
0.3188566 -0.30571112 -0.09740603 -0.31952313 -0.777496 0.38051462 -0.41478622 -0.051238753
-0.1985103 0.39473867 0.13921647 0.29226896 -0.3088738 0.31054598 -0.4898035 0.2974998
0.41752857 -0.4416962 0.28721842 0.37541872 -0.16353326 0.65805197 0.45220447 -0.15376538
0.40681067 -0.25387287 -0.4403108 0.37040126 -0.8073322 -0.44174156 -0.51604265 -0.71802354
0.55399746 -0.2868638 -0.3167644 0.6196047 0.3347298 -0.22277619 -0.20414095 0.6628654
-0.5290261 0.49496725 0.994694 -0.3348782 0.55159575 0.61430496 0.37680057 0.75025594
0.55532056 -0.5145907 -0.1307076 -0.41622937 0.33076623 0.57220984 -0.17177334 0.08855128
-0.29080787 0.7174633 0.16700491 0.38647565 -0.46981174 0.5021057 -0.76989704 0.42404172
0.62270814 -0.55210143 0.4087023 0.52746326 -0.23490696 -0.06378016 0.6159857 -0.21481754
0.19938506 -0.15574202 -0.21997438 0.19622053 0.2257024 -0.22027966 -0.2750153 -0.3536748
0.24171506 -0.098703355 -0.15363042 0.27831736 0.12561652 -0.09123792 -0.14250572 0.07904331

model_1/block_3_project_BN/FusedBatchNormV3 f4 [16]
00000000: e045 e5c1 8599 8040 70b8 fd3d d535 2ac1
00000010: 273a 16be 71e1 efc0 c050 30c1 b07b b9c1
00000020: e886 5940 ead4 8541 96ea f441 af90 f1c0
00000030: c19a 8ec0 47fb ddc1 af4b ae41 66d6 e2c1
-28.659119 4.01874 0.12388694 -10.638143 -0.14670621 -7.4962697 -11.019714 -23.185394
3.398859 16.728962 30.614544 -7.5489116 -4.456391 -27.747694 21.786955 -28.354687

model_1/block_4_depthwise_BN/FusedBatchNormV3;model_1/block_4_depthwise/depthwise;model_1/block_6_expand/Conv2D f4 [1, 3, 3, 96]
00000000: 261a f3bd 577e d03c c708 73be 88b3 3e3e
00000010: aae7 06be bc2d 203e da1c 3ebf 5bbe 83be
00000020: d0b3 a83d 97d9 f0bd db3a 253f dc23 05be
00000030: 1b4e 753c 8d99 24be 3bed eabc e8d0 6c3e
00000040: 62e5 f43c 01e5 623e fed6 bcbd 2b62 253d
00000050: 304b 363e 6c40 863c 526f 513e 1d61 06bf
00000060: 75d9 733c f27a 1b3e 88d2 993e 9705 bc3e
00000070: 0c0e c63d 2f71 6b3d e46b 123e 5f78 b03e
00000080: da2f 4abd b1cd ee3d 932a af3d 030e 9fbd
00000090: f752 ba3d 4c53 883e cd48 03be e736 0ebe
000000a0: da29 623e 7c47 f63d 2406 af3e 5755 f53d
000000b0: 0392 22bf 6070 10be 3676 853e 9d09 46bd
000000c0: 9935 30bd b81c 1fbe c942 86bd b6fe 00bd
000000d0: 312c 163f cb63 303d caea d4bd 8b67 603d
000000e0: da57 40bd 78b3 a6be 350c 0c3e 0864 10be
000000f0: f096 b63e 2d48 5bbc ec9c bb3f 4bd8 203e
00000100: f912 d0bd 4b27 a7bd 12c5 2b3d 9696 f4bd
00000110: 9b9b 7f3f 8d60 b43e 42e4 e73c 4308 e3bc
00000120: e37b 9e3e 60dc 2abe 674b d03e 5e51 2c3d
00000130: 95d3 d43e 3053 b9be 8098 bb3e 5306 963f
00000140: 4308 b73a 0d0f 373e 6df2 043f 2535 ccbd
00000150: 62c4 7b3e a17e ea3d cdb8 52be 6e02 1bbe
00000160: 9d9a 973e 4535 e2bc 6c92 f5bd c03a f83e
00000170: 44f3 2f3c 76f7 053f 11ef cabd e157 333d
00000180: 4e32 aebe e8be 763d 571b cbbd 3373 8b3c
00000190: 8215 db3e f057 61bd edc8 fdbd fe05 1bbf
000001a0: f6c7 403e a52b 5d3e c2da 52bf 1cea 93bd
000001b0: 1c66 98bd 6ab7 85be ea37 db3c 56fc be3e
000001c0: 439b cd3d 2949 dabe 76c6 0cbd 29b4 13be
000001d0: 96e6 383e 4a27 67bf ea77 523f 5c5f c03e
000001e0: cb9f e4be 8b5d 8cbe 959c 35bf c0e2 f4bd
000001f0: c58d 043e eefd 2b3e be6f 97be 042d 043e
00000200: 37f5 453f 5aa6 543d 8a92 e6bd 1de8 d5bb
00000210: 0778 f8be 570e 313f 18e9 09be 4181 2dbf
00000220: 8cfb bc3d 8a44 8dbe d6da c5be c2c5 c03d
00000230: eff1 b23e c84b a2be 77dc ad3f fb2a d4be
00000240: f96a 9abe 4b02 c13e bd6c c63e 212f 203d
00000250: f0ea ed3e 6f3a 0abf 1849 c23e 293d 8c3f
00000260: 7cc2 043f 72df c13e d802 05bf 7107 c43e
00000270: 7451 de3f e380 573e ba7b 303d 8401 f1bd
00000280: 9e75 9d3e a815 90be 9f97 c0be 43df dbbb
00000290: 881a 0c3f 98d2 9dbe bcf1 56be 9832 443e
000002a0: 6fad 3fbe 7ba5 79be 1dd5 1f3f 202a 23bd
000002b0: 93fc 29bf db41 2ebe e5ed d1be 63c2 903f
000002c0: 9033 0bbf 1c91 2b3f d072 7bbd 5230 783d
000002d0: 288b 8abd a578 423e 4b35 ca3e 62b4 a9be
000002e0: 1acc 77be 120c 7a3e d798 dfbd 0339 dc3e
000002f0: ed8a 6bbf fb11 44bf 6693 7b3f 0c7e febe
00000300: a215 b43a bad8 aebc b7ed 8bbe 4066 07be
00000310: 269a 953d f6d2 033e 45fc e23e 350e f13d
00000320: 8453 70bc 9790 5abd 2336 043d 9a3d 463f
00000330: 6763 d13a efdf 8dbe dec4 a4bd 6e22 023d
00000340: fd24 91bd 924c 633e cb60 23bd 0f6e 283e
00000350: 6ed7 4b3c b72d 6a3e f847 203e 5935 ffbe
00000360: 9927 033c 25d1 8ebe 9a3f 8b3d cdd3 b83d
00000370: ce4f 0ebd 0bff cc3c 9961 8e3e 37c5 11bf
00000380: 6b48 903e 799b 9b3d 9b11 b83d b690 f1bd
00000390: 29e7 783e 1ca7 903c 7363 8cbd 9620 e8bd
000003a0: 95b3 a23d e26e 1a3d 4fb6 52be 991f 723d
000003b0: f5d9 2f3e 7383 abbd 49a9 5c3e 8270 f33b
000003c0: 0bfb c83c a4b6 8abd c092 363d c637 c1bc
000003d0: 5567 743d 72b0 4b3d d923 9fbd 6f2d 2a3e
000003e0: 12f3 eabd f4f7 d03e a670 ff3c 4dff 50bc
000003f0: 3524 223e fae8 f2bd 119e ee3c c3b2 d1bd
-0.11870222 0.025450869 -0.23733817 0.18623173 -0.1317431 0.15642446 -0.74262774 -0.25731167
0.082374215 -0.11760252 0.6454293 -0.1300196 0.014972235 -0.160742 -0.028677573 0.23126566
0.029894534 0.2215767 -0.09220694 0.040376823 0.1780212 0.01638814 0.20452622 -0.52491933
0.014883389 0.15183619 0.30043435 0.36723015 0.09670648 0.057480987 0.1429897 0.34466836
-0.04936204 0.11660326 0.08553042 -0.077663444 0.090978555 0.2662605 -0.1282074 -0.13888131
0.22086278 0.12025353 0.34184372 0.11979168 -0.63504046 -0.14105368 0.2606675 -0.04834901
-0.043019865 -0.15538299 -0.06555707 -0.03149291 0.5866118 0.04306392 -0.10396345 0.054786246
-0.04695878 -0.325588 0.13676532 -0.14100659 0.3566203 -0.013383907 1.4657264 0.15707509
-0.10159869 -0.081617914 0.041935988 -0.119427845 0.9984681 0.35229912 0.028307084 -0.0277139
0.30953893 -0.16685629 0.40682527 0.042069785 0.41567674 -0.3619628 0.36639786 1.172068
0.0013964254 0.17876835 0.5193241 -0.09971074 0.24586633 0.11449934 -0.20578308 -0.15137646
0.29610148 -0.027613292 -0.119908184 0.48482323 0.010739151 0.5233072 -0.099088795 0.04378498
-0.34022754 0.060240656 -0.09917324 0.017022705 0.42789847 -0.055015504 -0.12391839 -0.6055602
0.18826279 0.2159868 -0.8236505 -0.07222387 -0.07441351 -0.26116496 0.02676006 0.37301892
0.100393794 -0.42633942 -0.034368955 -0.14424194 0.18056712 -0.90294325 0.82214224 0.37572753
-0.44653162 -0.27415118 -0.7094205 -0.11957312 0.12944706 0.16796085 -0.2957744 0.12907797
0.77327293 0.051916458 -0.11258419 -0.006527914 -0.48529074 0.69162506 -0.13467824 -0.6777535
0.09227666 -0.27591354 -0.3864352 0.09412719 0.34950206 -0.31698442 1.3582906 -0.41439041
-0.3015974 0.37697062 0.38754836 0.039107446 0.46468306 -0.5399541 0.3794639 1.0956165
0.5185926 0.37865788 -0.51957464 0.38286927 1.7368608 0.2104526 0.043086745 -0.11767867
0.30753797 -0.28141522 -0.37615678 -0.0067099645 0.54727983 -0.30824733 -0.20990652 0.19159925
-0.18718503 -0.24379532 0.6243456 -0.039835095 -0.6640102 -0.1701731 -0.41001812 1.1309322
-0.54375553 0.67018294 -0.06138879 0.060592957 -0.06764823 0.18991335 0.39493784 -0.33145434
-0.24198952 0.24418667 -0.10917824 0.43012246 -0.9200886 -0.76589936 0.9827179 -0.4970554
0.0013739357 -0.021343578 -0.273298 -0.13222599 0.07304792 0.12873444 0.4433309 0.11770288
-0.014668349 -0.053360548 0.03227819 0.77437747 0.0015975059 -0.2770991 -0.08045362 0.031771116
-0.07087133 0.22197178 -0.03988723 0.16448234 0.012441499 0.22869001 0.15652454 -0.4984539
0.008005046 -0.2789394 0.067992404 0.09024773 -0.034744076 0.025023958 0.27808836 -0.5694155
0.2818025 0.075980134 0.08987733 -0.117951795 0.2430693 0.017657809 -0.06854906 -0.1133434
0.07944409 0.037703402 -0.20577358 0.059112165 0.17172988 -0.08374681 0.21548952 0.0074291835
0.02453377 -0.06773117 0.044573545 -0.023586165 0.059668858 0.04972882 -0.07770509 0.16618894
-0.11472143 0.40814173 0.031181645 -0.012756181 0.15834124 -0.11860843 0.029128106 -0.10239174

model_1/block_4_project_BN/FusedBatchNormV3 f4 [16]
00000000: daed 2ec0 0bb3 1abf 03e5 5fc0 4944 ea40
00000010: 8e4d 0941 f4db 223f 1c09 17c0 fabf c1bf
00000020: 08a5 a440 8caf 8b3f b3d9 1b41 e360 6141
00000030: 88fa a7c0 5c2c b640 3a16 7141 7a72 08c1
-2.7332673 -0.6042945 -3.4983528 7.3208356 8.581434 0.6361687 -2.359931 -1.5136712
5.1451454 1.0912948 9.740649 14.086154 -5.2493324 5.692915 15.067926 -8.527948
