public/riellys-classifier-object-detection-tensorflow-lite-float32-model.5.tflite (tflite, 84716 bytes, 42 tensors)

model_1/bn_Conv1/FusedBatchNormV3 f4 [16]
000000 b2 12 b4 bf f6 07 42 41 86 bf 0d c2 39 d5 77 c0
       -1.4068205 12.126944 -35.437035 -3.872389
000010 54 f9 05 3f 92 5a d8 41 b0 14 31 40 0b ec ca 41
       0.5233357 27.044224 2.7668877 25.365255
000020 47 21 3f 40 b9 1a 16 c0 2a 9e 42 40 10 34 cd 40
       2.986406 -2.345381 3.0409036 6.4126053
000030 38 85 9e bf d8 f7 7d 40 59 4e 16 40 e3 b5 08 be
       -1.2384405 3.9682522 2.348532 -0.13350634

model_1/expanded_conv_depthwise_BN/FusedBatchNormV3 f4 [16]
000000 c6 29 9a be eb fc 25 40 96 71 7f 40 46 f7 60 40
       -0.30109996 2.593562 3.9913077 3.5150924
000010 6c e2 d6 3f 15 18 54 40 6a 8f a6 40 cc 1d 78 40
       1.6787848 3.3139699 5.2050066 3.8768187
000020 00 6c 06 be df d8 e7 3f ca c5 ca 40 ce 4c 91 41
       -0.13127136 1.8113059 6.336644 18.162502
000030 69 de a5 be 1c 49 c8 40 84 70 06 40 2b 36 d5 be
       -0.32396248 6.2589245 2.1006174 -0.4164289

model_1/block_1_expand_BN/FusedBatchNormV3 f4 [48]
000000 55 2a 06 40 74 3e 71 3c e5 77 48 40 54 eb ee 3f
       2.0963337 0.014724363 3.1323178 1.8665566
000010 2c 9a 00 40 13 f5 04 40 78 72 75 40 aa fe 65 bd
       2.00941 2.0774581 3.8351116 -0.05615107
000020 77 85 07 3d 5f b5 3d bf 2c 0f bf 3f 88 c9 59 3f
       0.033086266 -0.74104875 1.4926505 0.8507314
000030 2f 44 0e 40 79 13 26 be 07 ff 28 40 f3 c5 53 40
       2.2229116 -0.16218366 2.6405656 3.3089569
000040 b2 10 06 be 93 c1 30 bf e7 e2 51 be c4 ad 78 40
       -0.13092306 -0.6904537 -0.20496713 3.8856058
000050 e0 79 8e 3f 31 5e 71 bd 25 93 8a bc 7b 38 2a 3f
       1.1130943 -0.05892772 -0.016915867 0.6649243
000060 69 ff 71 40 93 18 0d bf 41 c6 18 3e b3 21 9f 3f
       3.781214 -0.5511562 0.14919378 1.2432159
000070 0c 2c 91 3f 3a 0f 3c 40 e5 80 3e 40 d6 00 15 40
       1.1341567 2.9384294 2.976617 2.328176
000080 11 2d 44 3f 19 31 4d 40 b0 6c 08 3e 71 47 99 bf
       0.76631266 3.2061217 0.13322711 -1.1974927
000090 ea 95 c2 3f 19 8a a3 3f f4 83 c1 be d4 e0 5d 40
       1.5202 1.2776519 -0.37795985 3.4668474
0000a0 d3 65 33 40 0b 6b 0d 40 74 fd 20 be 25 5b 50 bf
       2.8030899 2.2096584 -0.15721685 -0.81389076
0000b0 ee 19 a1 40 83 c0 b9 3d 7e 68 33 40 2a cc 5f 3f
       5.0344152 0.09069922 2.8032527 0.87420905

model_1/block_1_depthwise_BN/FusedBatchNormV3 f4 [48]
000000 68 b8 c2 40 0c 49 85 40 98 00 02 41 ae 50 85 40
       6.0850105 4.165167 8.125145 4.1660986
000010 88 12 56 bb c5 78 3a 40 77 61 bc 3e 73 2c 15 40
       -0.0032664854 2.9136212 0.3679311 2.330838
000020 1d e4 01 40 b8 b8 ce 3f 33 ab 28 40 4c 8a 3c be
       2.029548 1.6150122 2.6354492 -0.18412131
000030 b7 f5 09 c1 71 81 34 bf 4f c5 23 40 6b 0b 4c 3e
       -8.622489 -0.7051001 2.5589178 0.1992623
000040 95 72 0f bf 61 45 ae 3f 40 47 ab be 84 d7 1a 3e
       -0.56034213 1.3614923 -0.33452797 0.15121275
000050 f8 87 df bf 3c f5 d7 40 80 f1 d2 40 3b d7 08 40
       -1.7463369 6.748686 6.59198 2.1381366
000060 a2 5e 95 bf 2e 36 34 40 06 b9 05 40 1e 70 93 3f
       -1.1669505 2.8158069 2.089418 1.151859
000070 e6 2f 5b bf 70 01 2d 3f 8a d5 65 be c2 36 37 c1
       -0.8561996 0.6758032 -0.2244474 -11.450869
000080 38 a7 1d 40 0d b2 d0 3f bc 72 fc 3f 1a 8e 11 3e
       2.4633312 1.6304337 1.9722514 0.14214364
000090 25 01 83 3f a6 fb 70 be b7 89 98 40 8e b4 70 c0
       1.0234724 -0.23533496 4.766811 -3.7610202
0000a0 be 75 3b 3f 98 70 7c c0 a8 22 48 be f4 44 bc 3f
       0.73226535 -3.9443722 -0.1954447 1.4708543
0000b0 db eb 08 bf 5f f5 d2 40 77 2e da 3e 16 52 5d c0
       -0.53484887 6.5924525 0.42613575 -3.4581351

model_1/block_2_expand_BN/FusedBatchNormV3 f4 [48]
000000 7e f9 89 40 6f 11 11 40 cf 03 c7 3f 8d f3 4c 40
       4.3117056 2.266689 1.5548037 3.2023652
000010 37 d4 11 40 c2 29 a1 40 1b 18 f7 bf 4b 57 9c be
       2.2785776 5.0363474 -1.9304231 -0.3053535
000020 fc e2 11 3f c8 ce ae 3f aa c4 0c 40 76 52 0f 3e
       0.56986976 1.3656855 2.1995034 0.139963
000030 08 e5 75 3f ff 1e fc be 90 2f e8 3e 59 6c 68 c0
       0.960526 -0.49242398 0.45348787 -3.631613
000040 d1 b4 d1 3f 2c aa 88 40 51 30 04 bf 18 06 2d 40
       1.6383306 4.270773 -0.51636225 2.703497
000050 82 ce 98 3f f8 6d 82 3f ec f0 7d 40 f8 0b 09 bf
       1.1938021 1.018981 3.9678297 -0.5353389
000060 a9 25 99 3f e6 60 96 3f b2 00 82 40 d6 4f 6b 40
       1.1964618 1.1748321 4.062585 3.6767478
000070 56 f3 4f bd 43 84 27 c0 8b cd 4c 3d da 52 5a 3f
       -0.050769173 -2.6174476 0.05000071 0.8528267
000080 e3 80 fc bf 8e fb 0d 40 ec f9 87 3f 86 98 ed 3f
       -1.9726833 2.2184787 1.0623145 1.8562171
000090 94 0f 6c 40 cc 63 ab 3f ab 08 16 40 11 72 90 40
       3.6884508 1.338983 2.344279 4.513924
0000a0 94 bf 14 bf 55 f8 30 40 4e 83 06 3f c9 07 c0 3f
       -0.58104825 2.765157 0.52544105 1.5002376
0000b0 d1 00 98 3f fb 9a 89 3f 45 22 94 bf 8e 46 2a 40
       1.1875249 1.0750421 -1.1572958 2.6605563

model_1/block_2_depthwise_BN/FusedBatchNormV3 f4 [48]
000000 f4 3a c0 c1 18 d7 f1 bd d8 be ca 3f 83 25 03 bc
       -24.028786 -0.11808604 1.5839491 -0.008004549
000010 d4 42 03 3f 9a 85 4f bf 32 b8 8f 3f 94 74 5d 40
       0.51273847 -0.81063235 1.1228087 3.4602404
000020 71 c9 57 3e 97 39 9d 40 20 5d 35 be 8f 37 89 40
       0.21072938 4.91328 -0.17711306 4.288032
000030 cc 9e c6 bf 06 43 48 be 81 d5 1f 40 2c 40 cc 3f
       -1.5517211 -0.19556817 2.4974062 1.5957084
000040 60 27 34 bc 72 9e 70 40 c6 39 1a 40 8c 7a 20 40
       -0.010995716 3.7596707 2.4097762 2.5074797
000050 0e e0 93 3d ba 70 41 bd 50 f3 1b bc b9 b1 0c 40
       0.072204694 -0.047226645 -0.009518459 2.1983473
000060 85 26 ba bf 6e 34 66 40 d2 10 f8 41 c4 6a 61 40
       -1.4543005 3.59695 31.008213 3.5221415
000070 df 55 16 3f 17 a6 4b 3f 26 ba ad be c8 ac 9a 3e
       0.5872478 0.7955031 -0.33931082 0.30209947
000080 9c 06 5f 3f de 37 3e 40 b0 17 9e bf 00 1a 22 40
       0.8711946 2.9721599 -1.2350979 2.532837
000090 28 11 36 c0 8b 97 1e 40 e8 ea e5 c0 f0 a9 24 40
       -2.8447971 2.4779994 -7.184925 2.5728722
0000a0 5b 6e 4d 40 ff 0d c3 3f 13 13 d3 3f b1 00 3b be
       3.2098606 1.5238646 1.6490196 -0.18261983
0000b0 0f b3 1b 40 3e 7a a0 3e 9c ea 98 3e 98 3e 42 3c
       2.4328039 0.31343263 0.29866493 0.011855744

model_1/block_3_expand_BN/FusedBatchNormV3 f4 [48]
000000 68 c0 68 3e 54 43 35 3f 3f f2 12 3f 0b 10 1a 3e
       0.22729647 0.7080586 0.5740089 0.15045182
000010 98 e6 0b 40 a7 81 81 40 22 fd 8e 3f 1e c8 83 bc
       2.1859493 4.0470767 1.1171 -0.016086634
000020 bb fe 92 be 04 06 d9 be 68 50 83 3f f0 a8 90 3e
       -0.2870997 -0.42387402 1.0258913 0.2825389
000030 92 81 a0 3f 3f 7d 44 3f 66 0c 67 40 05 22 a3 3f
       1.2539542 0.7675361 3.6101317 1.2744757
000040 bb ec e5 3e 0c 2c d2 be 1f 8f 3c bd bc e2 6b 3f
       0.44907174 -0.4104923 -0.04603493 0.92142844
000050 6f c8 18 bf af a7 24 40 01 19 6d 40 18 9b c8 3f
       -0.5968084 2.5727346 3.704651 1.5672331
000060 07 b4 cb 3f 76 53 b9 3d ea c4 de 40 c9 2d ee 3f
       1.5914315 0.09049122 6.9615374 1.8607723
000070 9f b2 de 3f b5 85 75 be 64 c1 28 40 11 9f 9b 3f
       1.7398261 -0.23976786 2.6368036 1.2157918
000080 5a 09 c5 3e 2e ff 31 bd f7 74 6d 40 64 bf e7 3f
       0.38483697 -0.04345625 3.710264 1.8105283
000090 6e 97 b1 bf ca 59 be 3d 88 df 21 be d1 8e f1 3f
       -1.3874338 0.0929447 -0.15807927 1.8871709
0000a0 1c d6 3a 3e e5 5a 12 be b9 15 96 be 2e e4 bb 3c
       0.18245739 -0.14292486 -0.29313448 0.022935953
0000b0 c4 ae f8 3f fe dd b1 3f 3b e9 62 3e ab 67 96 3f
       1.9428334 1.3895872 0.22159283 1.1750387

model_1/block_3_depthwise_BN/FusedBatchNormV3 f4 [48]
000000 22 ae 99 3e 6c d0 12 40 e0 b6 40 be fe ca 00 40
       0.30015665 2.293971 -0.18819761 2.0123897
000010 31 6d 1b 3f a1 b8 29 41 ca d0 c7 be 19 b1 bf 40
       0.6071349 10.607575 -0.3902648 5.9903684
000020 00 ac 50 ba 8b 8f df 3f 04 2a c5 3f 28 c6 48 be
       -0.00079602003 1.7465681 1.5403447 -0.1960684
000030 f2 2f 26 bf 68 49 a6 3f 28 74 22 be 3c 35 a2 be
       -0.6491691 1.2991152 -0.15864623 -0.3168124
000040 70 4f 86 bc a4 a8 55 be b8 d2 bd be 1a b6 b2 be
       -0.0163953 -0.20865113 -0.37074828 -0.34904557
000050 48 4a 35 be 0a 4d b0 be e0 fb 78 bc 96 fd 34 c0
       -0.17704117 -0.34433776 -0.01519677 -2.8279777
000060 90 6f d7 be 04 d5 8c 40 31 79 44 40 2f 40 f3 40
       -0.42077303 4.401003 3.069897 7.601585
000070 24 78 b4 3e 98 3b 84 3e 03 97 fb be 22 41 bd bd
       0.3524791 0.25826716 -0.4913865 -0.09240939
000080 b1 51 b0 3f e0 86 ad 3c 1c 72 31 3f 0c e8 41 bf
       1.377493 0.021182477 0.6931474 -0.757447
000090 de 19 bc 40 00 b3 49 3d c8 2f c4 40 74 5c a4 3e
       5.8781576 0.049242973 6.1308327 0.32101786
0000a0 60 e0 7a 3d 28 e3 c0 40 a8 17 aa bd 40 39 5a 3d
       0.061249137 6.027729 -0.08305293 0.053277254
0000b0 a2 c7 20 40 38 33 af bd d0 7b d9 3d 1b 54 0a 40
       2.5121846 -0.08554691 0.106193185 2.1613834

model_1/block_4_expand_BN/FusedBatchNormV3 f4 [96]
000000 06 86 24 40 a2 f1 a9 3e e5 a3 ae 3f 9b c7 0d bf
       2.5706801 0.33192164 1.3643767 -0.553827
000010 7c 61 cd 3f fb 9e 6b 3f d5 df 47 40 92 11 5f 40
       1.6045375 0.9203946 3.1230366 3.4854474
000020 67 78 e7 be dc b0 e4 3f 99 6d b8 3f 5b a3 56 3f
       -0.45209047 1.7866473 1.4408447 0.8384301
000030 68 ff 30 40 3b 93 9a 40 25 18 04 be 7a 36 2e bf
       2.7655888 4.8304725 -0.12899835 -0.68051875
000040 ed c8 0d 40 1a f0 15 40 34 c9 e5 3e 24 3a 0d be
       2.2153885 2.3427796 0.44880068 -0.1379171
000050 ce 81 8a be d4 33 1e 40 f9 a5 bf 3f ba 31 46 3f
       -0.27052158 2.4719133 1.4972526 0.77419627
000060 a5 8e e4 3f 73 a3 05 40 4e d5 b7 3f cc aa 67 3f
       1.7856032 2.0881011 1.436197 0.9049499
000070 22 d2 f6 3c 6f 6a 2f 3c 41 f0 b6 3f 18 99 f2 3f
       0.030129496 0.010706528 1.429207 1.895297
000080 66 48 fb 3f 39 94 88 3f 15 a1 d5 3f 18 ec 9a be
       1.9631469 1.0670234 1.6689783 -0.3025825
000090 27 15 0f 40 41 e0 28 40 eb 65 e6 3e a4 a5 73 3f
       2.235666 2.6386874 0.44999632 0.9517462
0000a0 63 3f ef 3e c0 62 ec 3f d9 0a 09 40 0c 0f 3d 3f
       0.46728048 1.8467636 2.141287 0.73851085
0000b0 77 ad 8b 3f 88 8d 50 40 cb f7 36 40 a0 b8 bd 3f
       1.0912312 3.2586384 2.858874 1.4821968
0000c0 6e f0 c8 3f 06 b0 61 3f 3c 5a d7 3d a2 b4 2c bf
       1.5698373 0.88159215 0.10515258 -0.67463124
0000d0 5d 44 2b 40 ae 50 c9 3f e9 97 14 40 8a 7e ed 3f
       2.6760476 1.5727746 2.3217719 1.8554242
0000e0 7a e3 db bd 5a 19 e0 3f 10 5c 4d 3f aa a9 cd 3f
       -0.10736747 1.7507737 0.802186 1.6067402
0000f0 83 c8 d8 3f 9a 00 af 3f 4e f8 89 3f 52 e7 30 40
       1.6936191 1.3672059 1.0778902 2.7641187
000100 02 50 87 3f 93 96 91 3f 1f 12 f8 3f 9d ab a1 be
       1.0571291 1.1374077 1.938053 -0.31576243
000110 4d 39 2b 40 13 bf 92 3f 74 21 ff 3f c0 c8 f6 be
       2.6753724 1.1464561 1.9932084 -0.48200035
000120 df 99 c4 be 4f 95 a8 3f 57 72 dc 3e ee 31 a1 3f
       -0.38398644 1.3170565 0.43055984 1.2593362
000130 7d 65 18 40 f4 3f 8f 40 2d 16 d7 3f df 48 9d bf
       2.3811944 4.476557 1.6803643 -1.2287863
000140 b3 02 8c 3f 1d ed 04 c0 25 9b c0 be fc 03 8d 3e
       1.0938324 -2.0769722 -0.37618366 0.27542102
000150 83 cb ca 3f 4b 75 c7 3f 25 29 d1 3f dc cd ae 3f
       1.5843357 1.558267 1.6340681 1.3656573
000160 1b 98 d3 3f 22 28 cc 3f d5 02 b2 3f 4e 1a db 3f
       1.6530794 1.5949748 1.3907114 1.7117403
000170 bc 23 08 40 1f ce 30 40 35 f6 3b c0 21 94 51 40
       2.127181 2.7625806 -2.9369023 3.274666

model_1/block_4_depthwise_BN/FusedBatchNormV3 f4 [96]
000000 b4 3e f9 3f 29 f0 85 bf 66 86 83 3f 37 37 07 40
       1.947226 -1.0463916 1.027539 2.112745
000010 64 34 ab be e2 98 4e bf 32 21 48 c0 f1 2e 26 3e
       -0.33438408 -0.8070203 -3.127026 0.16228844
000020 0c 0a a5 be 92 8c 7d 3e 35 e7 b8 3e 44 7d 2b bf
       -0.32234228 0.24760655 0.36113897 -0.66988015
000030 86 10 a2 3d 00 33 cf be eb 5a 81 3f f6 9f 36 bf
       0.07913308 -0.40468597 1.0105871 -0.7133783
000040 f2 0a 35 be 82 34 ba 40 ac ab d1 3f 8c 77 ec 3e
       -0.17679957 5.8189096 1.6380515 0.46184957
000050 48 bd f7 3d ee be e1 be a8 4d 77 bd 40 d5 d2 3d
       0.120966494 -0.4409098 -0.060376793 0.102945805
000060 a6 f8 61 40 20 ea 86 bd ec 95 33 be ab b2 3f bf
       3.5308013 -0.065876245 -0.1753766 -0.74882
000070 c1 0d 1e bf e6 6c 64 bf 2e 1f 31 3f a6 b4 c4 bf
       -0.61739737 -0.89228666 0.691882 -1.536763
000080 bf e4 16 be b9 1e 76 be 00 7d d2 bb c5 4b 1b 40
       -0.14735697 -0.24035157 -0.0064235926 2.4264996
000090 ed 4d 19 3f 18 c4 02 bf d4 67 79 3f d7 0b d3 3d
       0.5988453 -0.51080465 0.97424054 0.10304993
0000a0 00 37 34 be 12 4c 0c 3f fb d7 40 c0 af 9e 9c bf
       -0.17599106 0.54803574 -3.0131824 -1.2235926
0000b0 a8 e3 9d bf 44 d1 90 40 f8 26 72 bd c7 51 63 40
       -1.23351 4.525545 -0.059119195 3.5518663
0000c0 7f 96 24 40 3c bc 0e c0 23 18 f5 bd 68 9a 96 3f
       2.5716856 -2.230239 -0.11967494 1.1765871
0000d0 4a a3 c4 3f 90 e3 68 3d 8f 7e b4 bf 72 a7 52 3f
       1.5362332 0.056857646 -1.4101123 0.8228675
0000e0 97 fa 6e c0 6f 26 d6 3e b0 4f 7b 3e 70 09 27 bf
       -3.7340448 0.41826198 0.24542117 -0.65248775
0000f0 42 61 20 bf 87 e4 41 be 7f a1 6c c0 bf a2 fa bd
       -0.62648404 -0.18934833 -3.697357 -0.122380726
000100 f4 42 b1 3e ae 69 3d 40 5b 2f 30 40 36 78 ee 3f
       0.34621394 2.9595752 2.7528903 1.8630435
000110 28 e1 86 c0 20 f1 ee bc e8 b9 ec bf 9c 15 58 bd
       -4.214985 -0.029167712 -1.8494234 -0.052754983
000120 3c cb b5 40 04 72 95 3f d8 39 10 3c 10 44 bd 3c
       5.681059 1.167542 0.0088028535 0.023103744
000130 ad bb 2a 41 cf 44 0d 40 f3 80 84 be 54 66 ee bf
       10.670819 2.2073247 -0.2587963 -1.8624978
000140 ae 31 74 be fb 73 03 c0 b4 55 e5 3d a4 d9 0f bf
       -0.23847076 -2.053954 0.11197987 -0.5619147
000150 1e 63 55 3d a0 07 d4 bd 21 3e 6f 3e e8 03 32 be
       0.05209648 -0.10353017 0.23363544 -0.17384303
000160 0e 47 fc 3d 13 0e b0 be d8 c8 2c bc da 59 94 bd
       0.1231824 -0.34385738 -0.010545932 -0.072437
000170 76 eb 1f be f4 3e 0a bf 83 d9 9d 3f 21 f1 82 40
       -0.15617165 -0.5400231 1.2332004 4.0919347

model_1/block_5_expand_BN/FusedBatchNormV3 f4 [96]
000000 2a 21 c2 3e 2f 4f be 3f 52 a8 ee 3f db 2c 14 40
       0.37915927 1.4867915 1.8645117 2.3152378
000010 19 e5 3e 40 99 e8 8a bf 99 9e 52 bf 66 12 d2 3f
       2.982733 -1.0852233 -0.8227325 1.6411865
000020 06 aa 17 40 0d 09 af bf 93 26 2b 40 2a 19 67 3f
       2.3697524 -1.3674637 2.6742294 0.9027277
000030 ab 60 a3 3f c6 6f 13 40 d1 a0 18 40 23 8c 17 3f
       1.2763876 2.303697 2.3848155 0.59198207
000040 3b ac da 3e 13 77 9f 3f 88 fe 0e 40 77 f2 99 3f
       0.42709526 1.2458214 2.2342854 1.2027119
000050 b0 2a 8f bd a2 d1 84 3e bb 8e 01 40 4e e3 28 bf
       -0.06990564 0.25941187 2.0243366 -0.6597184
000060 6a f6 27 40 fd 06 e3 3c 5c 25 10 40 9c 42 b3 3f
       2.624415 0.027713293 2.2522802 1.4004703
000070 80 14 d4 3f ef 1a 61 40 ee a9 33 40 14 dd 1d 40
       1.6568756 3.517269 2.8072467 2.4666185
000080 0d c5 d4 3f 16 06 58 be 9a 7f fe 3f 45 8d 16 3f
       1.6622635 -0.21096072 1.9882691 0.5880931
000090 3e 71 01 3f 48 4b bb 3f 22 e6 2c 40 ab 44 11 bf
       0.5056342 1.4632349 2.7015462 -0.56745404
0000a0 a7 65 f0 3f a8 db ca 3f 39 05 2c 40 5e 44 86 bf
       1.8781022 1.5848284 2.6878188 -1.0489614
0000b0 29 bd 4f 40 7e a3 c7 3f 6d 93 de 3f 92 4c 2a 40
       3.2459204 1.5596769 1.7388741 2.6609235
0000c0 33 df 83 40 c6 27 07 40 da 8d 03 be 78 08 d7 3f
       4.120996 2.1118026 -0.12847081 1.679946
0000d0 0e c9 88 bf 12 da a4 bd d0 c6 86 bf 19 57 8c 3f
       -1.0686357 -0.08049406 -1.0529423 1.096408
0000e0 32 2d 04 be 0f 5d ee 3f 84 25 03 40 1e f4 bb 3f
       -0.12907866 1.8622149 2.0491648 1.4683874
0000f0 df f7 cc 3f 62 99 b2 3f 3d ed b9 3f da 7f 7e 3f
       1.6013144 1.3953059 1.4525524 0.99413836
000100 2c 20 1f 40 2d 89 f6 3f 0d 80 a6 3f c0 c5 aa bf
       2.4863386 1.9260613 1.3007828 -1.3341599
000110 c4 0e d5 3f 86 1a 3a bf fa f2 8e 3f 4b 40 cb 3f
       1.6645131 -0.7269672 1.11679 1.5878996
000120 7f b0 05 40 ce b7 85 3f 21 49 c6 bf f5 da ae bf
       2.0888975 1.0446718 -1.5491067 -1.366057
000130 3b f8 d1 3f 87 3c ca 3d 61 24 42 3f b0 b0 c9 be
       1.6403879 0.09874826 0.7583676 -0.39392614
000140 43 fe 02 40 53 47 d6 3f ed 4f 60 3f e7 50 f9 3f
       2.046769 1.6740516 0.8762196 1.9477814
000150 d1 85 94 3f 8d c2 b2 3d 99 7a 15 40 09 f5 75 40
       1.1603338 0.08728514 2.3356078 3.8430808
000160 69 6f b7 3f 3f ea 11 40 40 67 a2 3f 54 05 91 bd
       1.4330875 2.2799222 1.2687759 -0.070810944
000170 38 0e b9 3f c2 15 cb 3f 0c d9 91 3f 0d 4b db 3f
       1.4457464 1.5866015 1.1394362 1.7132279

model_1/block_5_depthwise_BN/FusedBatchNormV3 f4 [96]
000000 10 e5 16 40 94 d5 b9 40 ab 97 0b be aa 4b c3 be
       2.3577309 5.8073215 -0.13632075 -0.38143665
000010 de e3 5c 40 94 af 4a bf 10 49 a4 3c 7c fd 3d 3d
       3.451408 -0.7917416 0.02005437 0.04638432
000020 e9 c4 bd 3f a3 4a 1d 40 21 8d 6a bf e8 75 3a 3d
       1.4825717 2.4576805 -0.91621596 0.0455226
000030 a7 39 10 3e cd b0 aa 3f 68 55 17 40 28 e3 ba bf
       0.14084493 1.3335205 2.3645878 -1.4600573
000040 dc 49 49 bf 23 7b 88 bd 28 c3 72 be c0 bd 82 3f
       -0.78628325 -0.066641115 -0.23707259 1.0214157
000050 15 e4 46 bf 03 e2 5b 3f 25 86 32 bf 26 12 35 3f
       -0.77691776 0.8589174 -0.6973594 0.7073082
000060 40 d8 bf 40 40 88 4b 3b 00 c6 87 bf 1c d0 58 40
       5.9951477 0.0031056553 -1.06073 3.387702
000070 70 3f a1 3f 29 e3 1e c1 50 a3 4a 3f 56 ba b3 40
       1.2597485 -9.930459 0.79155445 5.616496
000080 f0 2b 54 40 53 0e d0 bf 5e 1a 10 3f b0 88 c5 3d
       3.3151817 -1.6254371 0.56290233 0.09645212
000090 40 f3 f7 bc 32 11 6c be 8e 4d 81 3f 44 87 3b bf
       -0.030267358 -0.23053434 1.0101793 -0.73253274
0000a0 88 d7 ae bf 58 b1 7d be 38 fc d4 bf f4 8f fc 3c
       -1.3659525 -0.24774683 -1.6639471 0.030830361
0000b0 b4 56 4e 41 d8 55 4f bd 64 37 bc 3f 00 71 5a bf
       12.896168 -0.050618976 1.4704404 -0.85328674
0000c0 1d 33 2f c1 25 c8 07 3e 8c 7a ac 3b 00 42 27 bd
       -10.949979 0.13259943 0.005263632 -0.040834427
0000d0 1a 9e ef be 72 08 34 40 d4 b4 57 bf a2 93 d7 3f
       -0.4680031 2.8130155 -0.84260297 1.6841929
0000e0 11 c7 2c 40 b0 19 9e be 06 66 02 40 de f4 19 3e
       2.69965 -0.30878973 2.037477 0.15034816
0000f0 66 6a 51 c0 12 e2 cf be 0a a4 0b 3e 68 2f 2f bc
       -3.272119 -0.40602165 0.13636795 -0.010692455
000100 26 76 be be bb 84 00 40 2a 3b be be 05 e8 05 c0
       -0.37199515 2.0081012 -0.37154514 -2.0922863
000110 81 a3 35 bf be f8 e6 3e ba 1b fd bd d6 78 27 bf
       -0.7095261 0.4511165 -0.12358804 -0.65418756
000120 cb 36 56 3e 10 5c e3 bc 8d 51 40 bf f1 d1 eb bf
       0.2091934 -0.02775386 -0.75124437 -1.8423444
000130 16 93 0a be 6c 84 ef bd 47 01 23 40 84 42 a1 bf
       -0.13532671 -0.11695179 2.546953 -1.2598424
000140 85 97 b5 bf 3c d7 44 c0 e0 6c 5e bd 82 4c d0 bd
       -1.4186865 -3.0756369 -0.05430305 -0.10170843
000150 48 72 63 40 c3 a5 c7 bf e7 7b 54 bf 68 82 96 c1
       3.5538502 -1.5597461 -0.8300156 -18.813675
000160 9a 9f cf bf 48 3e ca 3f 49 5c 05 bf 1c 69 8b 3f
       -1.6220582 1.5800257 -0.5209394 1.0891452
000170 3b 4f 94 bd 78 9f 8b be 03 8d 4e bf e2 e7 3e 3e
       -0.072416745 -0.27270103 -0.80683917 0.18643144

model_1/block_6_expand_BN/FusedBatchNormV3 f4 [96]
000000 ba 04 20 bf 77 b9 c6 3f c7 6f 19 40 06 5e 6a 3f
       -0.6250721 1.5525349 2.3974473 0.9154972
000010 e0 52 86 bf 7b 3c c4 bf 04 ca 53 40 3e 37 31 3f
       -1.0494041 -1.5330957 3.309205 0.6922492
000020 81 24 1a 3f fa 99 29 bf f3 5c ff 3f b6 63 9a bd
       0.6021195 -0.66250575 1.9950241 -0.075385496
000030 3d b0 22 c0 8e f8 32 40 62 db 45 40 e8 a3 97 3f
       -2.5420067 2.7964206 3.091515 1.1846895
000040 8f 6f f0 3f 6c b9 b8 3f 82 18 fb bf af 8e d8 bf
       1.8784045 1.4431586 -1.9616854 -1.6918544
000050 f0 25 1b 3f c2 91 2c 40 15 0f 44 40 bf 5a d5 3f
       0.60604763 2.6963964 3.0634205 1.6668319
000060 51 38 40 3e 6c 36 fc 3e a0 b4 3f 40 62 de 8a 3f
       0.18771483 0.4926027 2.9953995 1.0849116
000070 eb 15 0f 3f c4 54 f7 bf 6b e0 bd 3f 8a f9 45 bf
       0.5589282 -1.9322743 1.4834112 -0.7733389
000080 e2 77 8b bd d6 f3 93 3f dc 0b ee 3b 64 cd 77 3e
       -0.06809975 1.1558788 0.0072645973 0.24199444
000090 3d 21 f4 3f d8 19 89 3f 75 22 21 bf bc 4f e2 3f
       1.9072644 1.0711012 -0.629432 1.7680583
0000a0 73 c4 a2 3f 1a 95 24 40 cd 00 c2 3f c9 a6 15 40
       1.2716202 2.5716004 1.5156494 2.3383048
0000b0 71 e0 f0 3f 53 d8 81 3f b3 3b 03 3f 71 83 08 40
       1.8818494 1.0144142 0.5126297 2.1330225
0000c0 4c 87 b0 3f b3 ac a4 bf f8 6d cb bf e2 c7 3f 3d
       1.3791289 -1.2865204 -1.5892935 0.046821482
0000d0 b4 56 04 be 86 3b 9a be 48 f0 49 3f bf e9 32 bc
       -0.129237 -0.30123538 0.78882265 -0.010919987
0000e0 0e 5a b7 3d a4 ce 8d be 7c 25 c0 bf 83 45 ec 3f
       0.089527234 -0.27696717 -1.5011439 1.8458713
0000f0 24 20 41 bf 48 c5 25 3f 05 4c 8d be 0d 45 4b bf
       -0.7543967 0.6475415 -0.2759706 -0.7940224
000100 86 8b f0 bf ea 13 f6 3f c4 ed 0b 40 c1 55 c8 3e
       -1.8792579 1.9224827 2.186387 0.39127925
000110 81 0a 91 bf 4a ae 9b 3e 58 89 be 3e 3f d7 05 3f
       -1.133133 0.3040641 0.3721416 0.52281564
000120 6f b7 ad 3f b0 e8 dc be 07 10 2a 3e 10 31 0a 40
       1.3571604 -0.43146276 0.16607676 2.1592445
000130 39 08 d9 bd c9 2f ef 3f 01 6a e9 3f 1c ba 3b be
       -0.105972715 1.8686458 1.8235475 -0.18332714
000140 c6 ed bb 3f 59 42 a4 3e ef 52 b3 bd 13 a1 76 3e
       1.4681938 0.3208187 -0.08756053 0.24084882
000150 49 9d e9 3f c4 be 18 40 48 04 16 40 e1 77 a3 3e
       1.8251125 2.3866434 2.3440113 0.31927398
000160 3b 83 36 3f 8a b2 04 40 ea 4b d0 bd c5 91 fb bf
       0.7129399 2.0733972 -0.101707295 -1.965386
000170 08 20 5d 3e 27 73 7d bf 90 ba 21 bf 53 85 d3 be
       0.2159425 -0.99003834 -0.63175297 -0.41312656

model_1/head/BiasAdd/ReadVariableOp f4 [32]
000000 13 26 1c bc e7 df 94 3b ba 5b 61 3b d7 d2 69 3a
       -0.009530562 0.004543293 0.0034386949 0.0008919662
000010 2f f0 b5 bc 10 d4 7b 38 39 23 f9 3b b7 b6 ec ba
       -0.022209255 6.0040562e-05 0.007603076 -0.0018059824
000020 9f 33 ce ba 54 0e 55 3b 5d 1e cb ba 30 ad 59 bc
       -0.0015731937 0.003250976 -0.001549672 -0.01328592
000030 cd e6 fe bb 0d 54 42 3a 12 a1 94 bc 98 3e 82 b9
       -0.0077789784 0.0007413037 -0.01814321 -0.00024842168
000040 3b 54 11 39 98 66 d2 3c 5a 38 68 bc 0e 58 02 bc
       0.00013859656 0.025683686 -0.0141735915 -0.007955564
000050 ed 2a 82 bb f4 0f 1a bb d2 81 ca 3b b4 b4 84 3a
       -0.0039724023 -0.0023508044 0.0061800266 0.0010124655
000060 75 b2 27 3c f5 06 71 bc 52 c7 87 bc 15 6b d1 bb
       0.010235419 -0.014711131 -0.016574536 -0.006390939
000070 21 f4 2b 3d 3f 64 2c 3b c5 da a9 3b 47 13 db 3c
       0.041980866 0.0026304869 0.00518355 0.02674259

model_1/expanded_conv_depthwise_BN/FusedBatchNormV3;model_1/expanded_conv_depthwise/depthwise;model_1/block_5_project/Conv2D f4 [1, 3, 3, 16]
000000 e8 1c 09 c1 ee 61 95 3d 04 4e d8 be 0e 42 d1 bf
       -8.569557 0.07294069 -0.4224702 -1.6348283
000010 b6 d9 b2 3e ee 76 e2 bd 8d b4 de 3f 47 58 39 be
       0.34931725 -0.1105784 1.739885 -0.18100081
000020 92 1e e3 bd b5 70 0d bd 2d dc 9a bd 9c e4 a9 3f
       -0.11089815 -0.034531314 -0.075615264 1.3272891
000030 ea 37 7b c0 dc 97 3b 3d e7 10 18 3f 0a c2 41 c1
       -3.9252877 0.04579912 0.5940079 -12.109873
000040 16 db 80 40 49 b9 c6 3d 43 95 26 bf 9e 5e d2 3f
       4.026744 0.09703309 -0.65071505 1.6435125
000050 af c9 92 3f 4b 43 56 be 6a 4e 31 40 84 45 9b be
       1.1467799 -0.20924108 2.770411 -0.30326474
000060 50 9d d5 bd f7 5c b2 3f bc 5f 9c bf 5d cc 15 40
       -0.104303956 1.3934621 -1.2216716 2.3405983
000070 e0 84 4f c0 c4 f6 57 3d 2b 6f b3 3f 39 9e 82 c0
       -3.242485 0.05272557 1.4018301 -4.0818143
000080 33 21 f4 3f 52 34 c2 bd 92 79 f0 3e 5b 74 ce bc
       1.9072632 -0.094826356 0.4696775 -0.025201967
000090 1a 40 27 bf 13 5a e1 3d 74 73 04 c0 33 57 3f 3e
       -0.65332186 0.110035084 -2.0695467 0.18685608
0000a0 21 5c ef bd 7f f1 99 be 3e 69 0b 3d 50 b3 35 bf
       -0.11687494 -0.3006706 0.034035914 -0.70976734
0000b0 76 94 f2 3f 34 e0 60 3c 15 3f 90 bf 19 07 99 c0
       1.8951557 0.013725329 -1.1269251 -4.7821164
0000c0 ba 65 21 c1 30 64 ff 3e cb 08 e5 bd 03 e6 32 3e
       -10.087336 0.49881124 -0.11183318 0.17470555
0000d0 ff 61 ca be a6 55 cc 3c b2 63 20 bf 1c 77 0c 3d
       -0.3952789 0.024943184 -0.6265212 0.03429328
0000e0 0a b6 0b bd 9f 63 9d 3b 6f 6b e4 3c 4c 97 9f c0
       -0.034109153 0.0048031355 0.02788326 -4.987219
0000f0 3c f8 c1 bf 0b 3d a5 3d 9b 65 a9 be ac 72 13 c0
       -1.515388 0.08068284 -0.3308533 -2.303874
000100 99 f9 c6 c0 f4 88 26 be 7f d9 94 be ab c9 3f be
       -6.2179685 -0.16263181 -0.29072186 -0.18729274
000110 36 c7 8c bd 83 69 2f bd 16 9f 2c 3e 48 1b 85 bd
       -0.06873934 -0.042825233 0.16857561 -0.06499344
000120 7b 2c 08 be af 23 7a bf fe 3d 49 3e f6 2e 0f bf
       -0.13298218 -0.977107 0.19652554 -0.5593103
000130 88 e6 4d c0 5e 58 9f bf 46 66 a9 3b 51 c5 73 40
       -3.2171955 -1.2448843 0.0051696626 3.8089182
000140 54 53 8e 3f af 50 8c 3b 8c 58 ac 3e 8c bf e3 3c
       1.111918 0.004282079 0.33661306 0.027801298
000150 a8 85 c1 3c ba 97 60 3d 57 0f 0f bf 78 12 a6 3d
       0.023623303 0.054832198 -0.5588278 0.081089914
000160 e3 68 20 be 03 aa 8f 3d c0 2a 96 bc 2a e7 8a 3d
       -0.15665011 0.07014849 -0.018330932 0.06782372
000170 62 76 29 bf 30 13 e8 3d 91 04 3f bd 96 bf e5 40
       -0.6619626 0.11331785 -0.046635214 7.179637
000180 81 7c 12 c1 8a 4f 91 be ba 4a b6 3e c8 14 e9 3c
       -9.155396 -0.28380996 0.35603887 0.028452292
000190 bf ca 6d bd 48 6d 81 3d f4 97 5b bf 0d 5e 00 3e
       -0.058054682 0.06319672 -0.8577874 0.12535878
0001a0 1b 6a c1 bd 23 1f 2b 3b d1 9c 62 bb d2 f8 42 3e
       -0.09444066 0.0026111088 -0.0034578333 0.1904023
0001b0 b8 b3 9e 3f d8 d9 85 3c fb 05 9a be 5c 45 70 40
       1.2398596 0.016339228 -0.30082688 3.7542334
0001c0 5f 50 e8 3f 15 a3 84 bc 6a b4 29 3e e3 16 a8 bc
       1.8149527 -0.016191045 0.16572729 -0.020518726
0001d0 41 04 7a be d7 ae 85 3d 4b 3e 3f bf b5 40 4e 3d
       -0.24415685 0.06527489 -0.74704427 0.05035468
0001e0 85 29 1e be dd 55 13 be 81 6c 5e bb e1 c1 74 40
       -0.15445526 -0.14388223 -0.0033939185 3.8243334
0001f0 4e 78 e4 bf c2 e3 35 ba 80 0b a3 be 42 70 93 c1
       -1.7849214 -0.00069385406 -0.3184471 -18.429813
000200 67 fd d0 3f 41 fc e3 bc 21 49 d0 3d c0 66 c5 b9
       1.6327332 -0.027830245 0.10170198 -0.00037651323
000210 8e d1 17 3d b4 84 bd 3c 9e 05 46 3e 6d 03 5d 3d
       0.03706508 0.023134567 0.1933808 0.053958345
000220 3f 80 11 be 0f bf 41 3d 7b b8 10 bc 85 79 b9 c0
       -0.14209078 0.04730135 -0.008833046 -5.796084
000230 b2 ac 53 40 4a a0 cd 3c d0 4d 3c 3e aa b9 a8 c1
       3.3074155 0.025100846 0.18389058 -21.090656

model_1/expanded_conv_project_BN/FusedBatchNormV3 f4 [8]
000000 24 d5 ed bf 2b e7 93 c2 c5 12 a0 c1 e2 b7 78 c1
       -1.858067 -73.9515 -20.009165 -15.544893
000010 f2 f4 15 c2 d9 18 8f c0 c0 44 18 c2 2b ff e7 c1
       -37.489204 -4.471783 -38.06714 -28.999594

model_1/block_1_depthwise_BN/FusedBatchNormV3;model_1/block_1_depthwise/depthwise;model_1/block_3_depthwise/depthwise f4 [1, 3, 3, 48]
000000 bc e5 1f be 30 21 a2 bd 6a 0d 20 bd 0e a9 87 bd
       -0.1561498 -0.07916486 -0.039075293 -0.066240415
000010 41 af 20 3d f1 d1 aa be 58 01 d7 be bc 8a 4f be
       0.039229635 -0.33363298 -0.41993213 -0.20267767
000020 77 e3 ed bd c2 93 a4 bd 5b f5 e1 3c 32 44 99 3d
       -0.11615651 -0.08035995 0.027582815 0.0748371
000030 8d b4 87 3e 4f 89 85 c1 e5 91 e9 3e d6 25 c0 be
       0.26504937 -16.692045 0.4561912 -0.37528867
000040 54 57 53 c1 f3 5e c5 bd 12 13 26 3e 7f 39 56 bd
       -13.20882 -0.09637251 0.16218212 -0.052300926
000050 2a 12 ca bb b8 c4 10 bf fc cf 70 bf db ad 04 be
       -0.006166716 -0.5655017 -0.9406736 -0.12956946
000060 10 9b d6 bd 31 c7 f5 be 62 4a d6 bd b9 5d 41 bd
       -0.104787946 -0.48003533 -0.10463406 -0.04720852
000070 4b 88 7e 3f fc b9 da 3c 3c 9d 18 3e d4 63 7d 3e
       0.99426717 0.026700012 0.1490373 0.24745113
000080 68 13 60 bf 46 47 5c bd 8c fc f4 bc 08 12 32 3f
       -0.8752961 -0.05377891 -0.02990558 0.69558764
000090 ac 12 47 3c de 0b 81 3f c9 f2 2e be e7 17 c7 3e
       0.012150448 1.0081747 -0.17084803 0.38885424
0000a0 27 4c 2c be 95 05 b6 bd 53 48 39 3f 25 6f 81 bd
       -0.16825925 -0.088877834 0.72375983 -0.06320027
0000b0 bb c8 98 bc 4d 8a 08 be 20 db 5b bf c1 46 36 3f
       -0.018650403 -0.13334008 -0.85881233 0.7120171
0000c0 90 40 8a 3e db fc 37 3d f9 d9 1f be 5b 50 ef bd
       0.27002382 0.044918876 -0.15610494 -0.116852485
0000d0 db eb 90 3e e0 b2 89 bf d9 3b 2c bf 28 1b 76 be
       0.28304943 -1.0757713 -0.6727882 -0.24033797
0000e0 5c d1 83 3e 42 55 f5 bd ad c8 cb be 89 96 ff 3d
       0.25745666 -0.11979152 -0.3980154 0.12479884
0000f0 09 68 95 3e fa cf 99 c1 ac c4 97 bb 12 d9 09 3f
       0.29180935 -19.226551 -0.0046315994 0.5384685
000100 8a d5 c1 c0 69 d9 03 be fd 6c 84 3e 5b b5 75 3d
       -6.057317 -0.12875904 0.258644 0.059987407
000110 b2 ed 47 3d 7b 33 67 bf bf 91 89 bf ed f6 eb bd
       0.04881067 -0.9031293 -1.0747603 -0.11521707
000120 43 5f 4c bc cf 7a ff be c9 1d 47 be e2 15 bd bd
       -0.012473884 -0.49898383 -0.19444956 -0.092326894
000130 c8 12 42 bf 43 17 1a 3d d9 82 b7 bd 62 d8 04 3f
       -0.7580991 0.03761984 -0.08960504 0.51892674
000140 c9 6e 50 3e aa cd 9b bd 66 7a 8b 3e 2f 9d 8f 3f
       0.20354761 -0.07607587 0.2724182 1.1219844
000150 e7 dd 08 3c 99 9f c3 3f 5f 40 ff bd 70 6d 20 3f
       0.008353687 1.528308 -0.1246345 0.6266699
000160 2c 98 91 be 3c 24 1d 3d 1e 60 5c 3f d6 4f 98 bd
       -0.2843641 0.038364634 0.86084163 -0.074371025
000170 4c 2b 6e 3c 8b 7b af bd 0a c8 a0 bf 0a 87 20 3f
       0.01453669 -0.08568486 -1.2561047 0.62706053
000180 7e 31 f1 bd 7d 6f 24 3e 84 8a 08 3d 59 35 ac bc
       -0.11777018 0.16058154 0.033335224 -0.021021532
000190 4a 5c a5 be 0b 60 6a bf 04 d4 9e be 4b d3 5d bd
       -0.32296973 -0.915528 -0.3102113 -0.054156583
0001a0 e5 4f bd 3e fb 81 3d bc fd 85 e0 be c1 d9 32 3d
       0.36975017 -0.011566634 -0.43852225 0.043664698
0001b0 6b 1d 85 3d 08 e6 85 c1 54 d9 ce be 07 3f c7 bd
       0.06499752 -16.73732 -0.40400183 -0.097288184
0001c0 72 5a 6d c1 e9 92 e4 bc de 7b fa 3d 09 6c d8 3d
       -14.834581 -0.027902083 0.12230657 0.10567481
0001d0 10 85 92 bd 54 d6 18 bf 82 ea 9a be 9c 64 1d bd
       -0.07154286 -0.5970204 -0.3025704 -0.038426027
0001e0 3b 3f 0a bd 56 2e f5 bd e1 3d c2 bd b3 92 cb bc
       -0.033751708 -0.119717285 -0.09484459 -0.024850225
0001f0 63 2b 09 be 1b 4a 07 3d 77 9b 13 bd e0 f4 be 3d
       -0.13395457 0.033029657 -0.036036935 0.0932405
000200 b3 d6 3d 3f 64 49 53 bd 29 a7 97 3e 5d 1d d4 3e
       0.7415573 -0.051583663 0.2961972 0.41428652
000210 1a fc 18 3c 50 69 42 3f 59 b3 af bb 19 6f 9c 3d
       0.009337449 0.75941944 -0.005361956 0.07638378
000220 9f 12 35 be 68 f9 9f 3c 76 fd 1f 3d 5b 06 3b bd
       -0.17682885 0.019528106 0.03906008 -0.045660358
000230 41 56 01 be f8 16 b3 3c 15 c5 0c bf b4 2e c3 3d
       -0.1263056 0.021861538 -0.54988223 0.09530392
000240 0f a1 9e be 62 4d f0 be b6 75 7d be 02 6b 32 be
       -0.30982253 -0.46934038 -0.24751934 -0.17423633
000250 bf 43 4e bd d2 78 eb 3e fb 55 06 3f e8 7d a0 be
       -0.050357576 0.45990616 0.52474946 -0.3134606
000260 64 8a e8 bd c3 e5 2b be ef d6 97 bd d8 9f 03 3e
       -0.11354521 -0.16786866 -0.07414042 0.12853944
000270 91 65 31 3f c8 b6 72 c1 ec f9 dc 3d c9 30 5b bf
       0.69295603 -15.169624 0.10789856 -0.85621315
000280 9d cf 62 c1 2c ba d9 bd fa d4 c9 3e a2 a3 24 bf
       -14.175687 -0.106312126 0.394203 -0.64312184
000290 bc a9 40 3e a3 ee 3c bf b0 a4 5e bf 2a ba 5a be
       0.18814749 -0.7380163 -0.86970043 -0.21360078
0002a0 7b 46 f9 3d 71 e1 eb be 93 39 02 be 85 f0 a6 bd
       0.12171646 -0.46070436 -0.12717275 -0.08151344
0002b0 3f e7 e4 3f a8 88 dc bd c2 ce 49 3e 34 94 4d 3f
       1.7883071 -0.107682526 0.19707778 0.80304265
0002c0 94 e0 97 be e1 c1 51 bd 78 a8 75 bd 98 9e 93 3f
       -0.29663527 -0.051210288 -0.059975117 1.1532774
0002d0 af eb c2 bc f2 71 d0 bf ab 0b 14 be b6 2e e5 3e
       -0.023794023 -1.6284773 -0.14457576 0.447622
0002e0 01 6b bf 3d a8 23 c3 3e 13 59 34 3f a9 08 83 bd
       0.09346581 0.3811314 0.70448416 -0.06398136
0002f0 6b 96 30 bf b4 61 e9 be ca 26 4c 3f 37 6c 4a 3f
       -0.6897952 -0.45582354 0.7974669 0.7907137
000300 e2 25 e9 3e 10 8f 9f be b4 76 33 bf f7 b3 03 bf
       0.45536715 -0.31163836 -0.70103 -0.5144648
000310 a1 e4 21 3f 37 5c ae 3e fa bf fc 3e 59 7a c3 be
       0.63239485 0.3405473 0.49365216 -0.3817928
000320 52 42 de 3e 69 0a 4d be 30 4f c6 be 17 6f 15 3e
       0.43409973 -0.20023502 -0.3873229 0.14593159
000330 01 60 7a 3f 9c 1f 59 c0 a8 91 d8 bc 37 d9 8e 3f
       0.9780274 -3.3925543 -0.026436642 1.1160039
000340 98 eb df c0 96 0e 15 be 10 fb 11 3f 72 bd 88 bf
       -6.997509 -0.14556345 0.57023716 -1.0682814
000350 3a b5 13 3f 7a 70 82 bf 02 05 81 bf 3e de 4b be
       0.57698405 -1.0190575 -1.0079653 -0.19908997
000360 04 09 c1 3e cf b6 c7 be 55 5b 58 be ec da 91 be
       0.3770219 -0.3900666 -0.2112859 -0.28487337
000370 af cc d6 bf da b2 6a be 9b 14 e3 bd 12 14 9b 3f
       -1.6781214 -0.22919789 -0.110879146 1.21155
000380 46 dd 4b 3e b7 6a 8c bd cb 7e 09 3f 1a e4 db 3f
       0.19908628 -0.06856292 0.53709096 1.7178986
000390 eb 19 3f bd e8 08 2c c0 f8 6a 04 be a8 cc e2 3e
       -0.046655577 -2.6880436 -0.1293143 0.44296765
0003a0 9d 6e 0c 3e 7e 7e 4f 3f 43 d2 5e 3f 23 11 8b bd
       0.1371407 0.81052387 0.87039584 -0.06790378
0003b0 79 2e 5a bf 13 85 f8 be ed 97 9d 3f 12 f4 56 3f
       -0.8522716 -0.48539028 1.2311989 0.8396617
0003c0 54 29 43 be c6 96 f3 3d 17 fd ad be 5a 2c ae be
       -0.19058734 0.11893992 -0.33982155 -0.34018213
0003d0 0f 13 17 bf c5 14 49 be ee b8 26 3e 67 e8 e1 bd
       -0.59013456 -0.19636829 0.16281483 -0.11030655
0003e0 84 d8 09 3f 31 93 04 bd a4 e3 87 be dc 5b 20 3d
       0.53846 -0.032366935 -0.26540864 0.039150104
0003f0 46 58 da 3e fc 32 83 c1 bd ea d0 bd b1 b0 c4 be
       0.42645472 -16.399895 -0.10201023 -0.38416055

model_1/block_1_project_BN/FusedBatchNormV3 f4 [8]
000000 6e 9e a4 c0 0c 55 a7 c1 00 e5 db 41 3e e4 bc 41
       -5.1443396 -20.916527 27.486816 23.611446
000010 2c 19 7a 40 66 63 e1 3f a7 68 1b 42 b1 f7 3a 40
       3.9077864 1.7608459 38.8522 2.921368

model_1/block_2_depthwise_BN/FusedBatchNormV3;model_1/block_2_depthwise/depthwise;model_1/block_3_depthwise/depthwise f4 [1, 3, 3, 48]
000000 48 4d b4 3d 5c 13 fd bc 5a 1d 12 3e db 87 4d 3f
       0.08803803 -0.03089302 0.14269009 0.80285424
000010 87 aa 50 3c e7 42 e3 3e cf 1d 80 bb 07 df cc 3d
       0.012735969 0.4438698 -0.0039098035 0.100034766
000020 ec 4c 84 3d bf 5c 2b 3d e4 25 01 3d bf ce 35 3d
       0.06459984 0.041836496 0.031530276 0.04438662
000030 fc 37 96 bd 89 52 70 bd de b0 2e be 02 2d cf 3c
       -0.07334897 -0.05867246 -0.17059657 0.025290016
000040 be 9e 6a bc 19 d9 3a 3d b1 79 65 bd ff e9 86 bf
       -0.014320074 0.045617197 -0.056024257 -1.054016
000050 41 48 62 bd 6b b0 7f be 3a d6 15 3f 8d 38 1e bd
       -0.055244688 -0.24969642 0.5853001 -0.03862815
000060 9f 61 88 bc 58 a4 f9 3c 37 ec 1d be cd d6 2c 3d
       -0.016648112 0.030473873 -0.1542214 0.042197037
000070 6a 98 d5 bc 5d 5a 12 3d ea cf a1 3d 59 f5 60 3f
       -0.026073653 0.03573071 0.079009846 0.8787437
000080 8e 37 85 3e b5 05 76 3e 80 cd 8d 3e cb 26 1c be
       0.26018947 0.24025615 0.27695847 -0.15249173
000090 04 b5 49 3c e0 98 45 3e 24 17 fe bc 36 d3 aa 3a
       0.012311224 0.19296598 -0.031016894 0.0013032916
0000a0 66 32 3b 3d be 3d 2e be cc 37 43 bd 8d 3d 40 bd
       0.04570236 -0.1701574 -0.047660634 -0.0469337
0000b0 ca 43 ed 3d af 20 56 3c 3e 2a 57 bd 7e 31 00 bd
       0.11585195 0.013069316 -0.05253052 -0.0312972
0000c0 76 78 1d 40 48 de bb 3d f5 22 da 3d 37 40 6f bf
       2.4604774 0.09173256 0.10651199 -0.9345736
0000d0 4e 1e d8 3d 90 68 f2 3e 08 e8 10 3e 57 39 1b 3d
       0.10552655 0.473454 0.14151013 0.03789648
0000e0 4a 81 06 3f 2b 8b 2c 3f 80 42 d3 3c 00 7d 83 3e
       0.5254103 0.67399853 0.025788546 0.25681305
0000f0 7c 1d f3 be 8d 5d 26 be e6 6f 9b 3c b4 cf b8 3c
       -0.47483432 -0.16246624 0.018974256 0.022559978
000100 c1 73 28 3f e3 c6 a5 be b6 3e 14 be f0 d5 06 bf
       0.65801626 -0.323783 -0.14477047 -0.5267019
000110 46 a5 49 bf 65 ef 90 3e b2 0a 00 bf 6e b7 62 3d
       -0.7876781 0.28307644 -0.5001632 0.055350713
000120 20 99 0f 3e ee 43 b5 3e e6 d9 63 bf 51 96 d0 be
       0.14023256 0.3540339 -0.8900436 -0.40739682
000130 5e b9 f7 3d 17 d8 27 3e 06 ca 47 3d 60 6c 8d bf
       0.12095903 0.16391025 0.04877665 -1.1048698
000140 0c 7e 90 3d 6a 39 05 bf 27 4c 6e 3f 64 18 59 3d
       0.070552915 -0.5204073 0.9308495 0.053001776
000150 4a c7 d2 be 2f 4a 83 be df f1 ac bd 84 a5 d0 3d
       -0.4116767 -0.25642535 -0.08444571 0.101878196
000160 b1 fd 52 be 82 aa 78 be 37 9a 22 be 00 93 71 3c
       -0.20604588 -0.24283794 -0.15879141 0.01474452
000170 8d 9a 6b be df 0c 16 bd b8 c3 58 bf b0 f5 94 3d
       -0.23008175 -0.03663337 -0.84673643 0.07273424
000180 ae b7 1c bf bf 5f eb bc 20 d0 5d 3d 84 ce db 3d
       -0.6121777 -0.028732179 0.05415356 0.10732749
000190 f3 65 78 bb 88 1f b7 3e c3 c1 50 3d a1 c8 80 3d
       -0.0037902563 0.35766244 0.050966036 0.06288267
0001a0 c5 53 eb 3d 5c 5b 31 3d b3 dc 36 bd ad d5 3e 3e
       0.11490587 0.043300018 -0.04464407 0.18636198
0001b0 b7 be 05 be c6 8a 97 bc 24 34 77 3d 0a d1 24 3c
       -0.13061033 -0.01849879 0.06035246 0.010059604
0001c0 be 46 09 bf 55 5d 26 3e 20 de 24 bc 25 40 37 3f
       -0.5362357 0.16246541 -0.010062724 0.7158225
0001d0 ae c9 7c be 92 ae 07 be 23 bd a3 bd 15 93 d8 bc
       -0.2468631 -0.13250187 -0.07995059 -0.026437322
0001e0 92 17 02 bd c9 3c 97 be 01 f6 be bd 85 14 10 3e
       -0.03176076 -0.29538563 -0.09324265 0.14070328
0001f0 14 ab b3 bd 08 f4 27 3d 99 ca 91 3c fb fa 4c be
       -0.08772865 0.04100421 0.017796801 -0.20017616
000200 0b 2a d6 3d 3d 17 54 be 4b 6e f7 3d 61 b1 d6 bd
       0.10457238 -0.2071199 0.120815836 -0.10483051
000210 3f 98 1c bc ad 70 88 3e 5b 43 0e 3f 96 16 30 bc
       -0.009557783 0.26648465 0.55571526 -0.010747572
000220 fa ae 05 3e d9 3d cd 3d d2 b2 a1 bd d1 42 6c 3d
       0.1305503 0.10021562 -0.078954354 0.05768091
000230 8b d0 96 be 5e 11 52 3c 9f 8d 64 bc 69 00 90 bc
       -0.2945598 0.0128215235 -0.013949781 -0.01757832
000240 8f 5b 1c 40 48 a2 84 3d 71 eb bc 3b 98 a5 38 bf
       2.4430883 0.06476265 0.0057653715 -0.72127676
000250 fa ef 52 3d a8 21 18 be 2e 97 e2 3e c7 00 6b bd
       0.05149839 -0.14856589 0.44255966 -0.05737379
000260 8e 44 17 3d 4c 31 42 3d 99 e4 22 bd a8 11 a5 3e
       0.036930613 0.047410294 -0.03976879 0.32240033
000270 a0 25 7f bd ad 5e c5 bb 05 cb 8b 3d a2 98 c0 bd
       -0.06229174 -0.006023249 0.06825832 -0.094041124
000280 9e 2a fe ba e3 87 92 be fa f9 11 be ae 5f 4a bf
       -0.0019391363 -0.28619298 -0.14255515 -0.79052246
000290 51 9d 98 3d 58 91 54 bf 84 b5 11 bf a6 0f 90 bd
       0.07451881 -0.83034277 -0.56917596 -0.07034235
0002a0 dc 0a 2b 3d b9 4a fd 3e 76 a1 dc be 37 4a 1e bf
       0.041758403 0.4947107 -0.43091935 -0.6183199
0002b0 7f a4 3b bd 94 10 7f 3e fe 60 7b 3d 82 14 76 bf
       -0.045811173 0.24908668 0.061371796 -0.9612504
0002c0 13 bf 5b 3e b8 1a e7 be 8a ec 90 bc 50 8b 30 3f
       0.21459608 -0.45137572 -0.017690916 0.68962574
0002d0 8d f3 f6 bc 5f 66 a7 3e 3e 04 0f bf 05 d4 0f 3d
       -0.030145431 0.3269529 -0.5586585 0.035114307
0002e0 35 14 26 be 67 bd a2 be ed 39 4e 3e 8c 18 f3 be
       -0.16218646 -0.31785128 0.20139284 -0.47479665
0002f0 16 e2 98 be b9 32 7c bd b2 d8 b3 bd a4 0f 63 bc
       -0.2985999 -0.06157181 -0.08781566 -0.0138587095
000300 69 f3 05 3f e2 b5 9e bf d3 9c 63 bf 34 89 57 3f
       0.5232454 -1.2399256 -0.8891117 0.8419373
000310 2e 7a f9 be fe 1d 33 bf b6 3d cd bf 66 7a e7 be
       -0.48726028 -0.6996764 -1.6034458 -0.4521057
000320 d0 c5 0a bf dc 0c 03 bf bb fe d4 3e ff 26 43 bf
       -0.5420809 -0.51191497 0.41600594 -0.7623138
000330 fe cb 9b 3f ca 72 66 3f 10 23 07 3e 51 6b be be
       1.2171628 0.90018904 0.13196969 -0.3719125
000340 d4 db dd be c8 ad 3a 3f 59 b7 9a 3e 44 e0 7b bf
       -0.43331778 0.7292142 0.30218008 -0.9838908
000350 d0 00 7b 3f c5 30 b8 3f db e8 03 3f 4b 4a fc 3e
       0.98048115 1.4389883 0.51527184 0.4927543
000360 02 ee 76 3f 33 37 23 bf a0 64 65 c0 ff ad 0f 3e
       0.9645692 -0.637561 -3.5842667 0.14031218
000370 f6 2e 2a bf 6f 85 7a bf f2 33 f7 3e 2d 26 91 3f
       -0.66477907 -0.97859854 0.4828182 1.1339775
000380 55 47 d2 bf fe 14 8a 3f 05 32 5a be 45 6c 65 be
       -1.6428019 1.0787656 -0.21308143 -0.22404583
000390 28 05 a7 3f cc f3 33 bf ef 76 dd 3f 26 4e e6 3d
       1.3048449 -0.7029388 1.7301921 0.112453744
0003a0 51 b7 a9 3e c1 5c 4f be ce 88 2a 3f ff 97 2c 3f
       0.33147672 -0.20250227 0.66615 0.6741943
0003b0 0b 31 5d 3f b5 20 0a bf 97 38 2d 3f ab 19 af 3e
       0.8640296 -0.53956157 0.67664474 0.3419927
0003c0 30 38 86 3f c6 3c 51 3d a6 b8 ae 3e 29 ba c8 bd
       1.0485897 0.05108335 0.3412525 -0.09801132
0003d0 6f c8 9c 3c ed 0d aa be 86 b5 0d 3f 1a 41 88 3d
       0.019138543 -0.3321375 0.5535511 0.06653042
0003e0 47 e0 d1 bd 1d a9 9f 3d 8a 29 af be e1 5f 3f bd
       -0.10247856 0.07795928 -0.3421138 -0.046722297
0003f0 38 42 43 3b 67 05 8f be f8 09 f7 3e cf 0c 49 3c
       0.0029794108 -0.2793381 0.48249793 0.01227112

model_1/block_2_project_BN/FusedBatchNormV3 f4 [8]
000000 3f 4b 73 c1 91 e1 8d 41 30 a5 9c c1 49 bc a5 c1
       -15.205871 17.73514 -19.580658 -20.716936
000010 ed d3 7f 41 2b 9a ac c0 84 fd bd 41 f1 5f 22 42
       15.98924 -5.3938193 23.748787 40.593693

model_1/block_3_depthwise_BN/FusedBatchNormV3;model_1/block_3_depthwise/depthwise f4 [1, 3, 3, 48]
000000 01 59 57 3e 1c d5 43 be 3a a7 2b 3f 5d e4 4d 3e
       0.21030046 -0.19124264 0.6705204 0.20106645
000010 d6 0e b4 3e 33 55 03 be 6c 6c 19 3f 63 46 b6 be
       0.3516757 -0.1282547 0.59931064 -0.35600576
000020 de 43 83 3e 01 5f 56 be 44 4c 51 be 0a 66 72 3e
       0.25637716 -0.20934679 -0.2043925 0.23671737
000030 16 79 02 3e c3 5e 96 bd d7 af 27 bf 32 2f 21 bf
       0.12741503 -0.07342293 -0.65502685 -0.6296264
000040 d5 ee 51 3f 8a 57 a2 3e e6 c5 be 3e 48 68 08 3f
       0.82005054 0.31707412 0.3726036 0.5328412
000050 f8 08 94 3e cc fd b9 be eb 1d de be 05 c7 93 3e
       0.28913093 -0.36326444 -0.433822 0.28862777
000060 08 7e 14 be 08 ec 1f be 0c dd 89 bd aa a5 60 be
       -0.14501202 -0.15617383 -0.067316145 -0.21938196
000070 ce 80 c7 be 53 48 90 3e 99 a8 c3 be 01 aa 28 bf
       -0.38965458 0.2818018 -0.38214567 -0.65884405
000080 f9 24 e9 bc f4 09 7b 3e 76 53 b9 3d 23 10 46 3e
       -0.028460013 0.24515516 0.09049122 0.19342093
000090 63 3f 6d be 0e 60 59 3e 08 24 a3 be 33 d8 9e bd
       -0.23168711 0.21228048 -0.31863427 -0.077560805
0000a0 ca bc 75 3e 92 41 b7 be 09 b9 40 3e ee 56 84 3e
       0.23997799 -0.35792214 0.18820585 0.25847572
0000b0 0b 76 2c be 38 b9 81 3d cf d9 c1 3e 41 31 74 bd
       -0.16841905 0.06334156 0.37861487 -0.059617285
0000c0 d6 de 7c 3e e0 1c 4c be d7 3f 63 3f e9 a8 7b 3e
       0.2469438 -0.1993289 0.88769287 0.24576153
0000d0 59 b6 fe be f7 7e 83 be 8c 9d a4 be cd 44 ee be
       -0.49748495 -0.25682804 -0.3215145 -0.46536866
0000e0 f3 60 d5 3e 48 fb 74 be 79 7f 24 be c7 20 be 3e
       0.4167553 -0.23923981 -0.16064252 0.37134382
0000f0 8d 18 4d 3e f9 b1 45 be c4 b2 5e bf 93 f6 22 3f
       0.20028897 -0.19306172 -0.86991525 0.6365749
000100 32 0e a1 be 3f f7 bf 3e 44 e7 1f 3f 18 f9 5c 3f
       -0.31456143 0.3749332 0.6246226 0.86317587
000110 1c 71 bc 3e 75 31 11 bf 41 6a 8a 3e c8 91 ce 3e
       0.36805046 -0.5671609 0.2703419 0.40345597
000120 88 35 6a be c4 ef 9f be 12 ac 94 bd 85 32 8d be
       -0.22871983 -0.31237614 -0.07259382 -0.27577606
000130 14 56 a4 3e f6 9a b5 3e cf 70 36 be 3a d5 3d bf
       0.32096922 0.35469788 -0.1781647 -0.7415348
000140 7c 3b 56 be 23 b7 f6 3e 79 8a e0 3d 7d 8c 83 3e
       -0.20921129 0.48186597 0.109639116 0.25693122
000150 04 02 97 be fa 2f a8 3e a0 72 04 bf 65 68 57 bd
       -0.29493725 0.32849103 -0.51737404 -0.052589793
000160 3c 4f b7 3e eb 2b ec be 4d 14 8d 3e 3e 39 c0 3e
       0.3580264 -0.46127257 0.2755455 0.37543672
000170 9d 6c 05 be 9c b5 49 bf 2f cb f0 3e 6f 4c 38 be
       -0.13029714 -0.7879274 0.47030017 -0.17997907
000180 51 eb d5 3d 0f 87 be bd 7a b2 f7 3e e4 1f de 3d
       0.10445274 -0.09303104 0.48378354 0.108459264
000190 aa 81 e7 3d 75 6d 1c be f9 61 88 be 76 27 5a be
       0.11304028 -0.1527613 -0.26637247 -0.21304116
0001a0 c6 3d 41 3e 52 b7 8e bd a4 68 5c 3c 36 44 30 3e
       0.18871221 -0.06968559 0.013452683 0.1721352
0001b0 ca 2a 95 3d e1 93 10 be 63 24 01 bf 21 8a db bb
       0.07283552 -0.14118911 -0.50446147 -0.006699816
0001c0 b6 15 df be 43 67 16 3e 64 d7 85 3e fb e3 ef 3e
       -0.43571252 0.14687829 0.26140893 0.46853623
0001d0 24 24 14 3e 06 e5 8a be eb 55 25 3e 25 58 17 3e
       0.14466912 -0.27127856 0.16146056 0.14779718
0001e0 ac 0d fd bd cb bb 3b be b0 02 3c bd 10 8f 9e bd
       -0.12356123 -0.18333356 -0.045901 -0.07742131
0001f0 f6 55 36 3e 69 d8 12 3e 74 4b 07 3f a9 e7 03 bf
       0.17806229 0.14340366 0.5284951 -0.5152536
000200 6c d9 4f be b0 e3 85 3e 51 fd 42 3d a6 d5 d6 3d
       -0.20297784 0.26150274 0.047604863 0.10489969
000210 4c 9b dc bd 1d b8 1c 3e eb 98 71 be 44 0b 14 bd
       -0.10771808 0.15304609 -0.2359349 -0.036143556
000220 55 93 43 3e e0 e1 48 be 5b db eb 3d 8e 98 3a 3e
       0.19099171 -0.19617414 0.11516448 0.18222257
000230 e7 31 27 bc d6 95 5e bd 73 d9 3a 3e 15 ae 01 be
       -0.010204769 -0.054342113 0.18247013 -0.12664063
000240 9c 12 8d 3e d5 6b 6c be 24 0a 94 be 54 ed 88 3e
       0.2755326 -0.2308801 -0.28913987 0.26743567
000250 36 cb b7 3e 8a 23 9b be 0d 11 39 3f 24 f3 fd be
       0.35897225 -0.30300552 0.7229164 -0.49599564
000260 bd cf be 3e b9 ef 84 be ae 1e 40 be bc f8 d2 3e
       0.37267867 -0.25964144 -0.18761703 0.41205394
000270 30 52 57 3e cd 49 48 be 04 b5 05 be fb be 62 bf
       0.21027446 -0.19559403 -0.13057333 -0.88572663
000280 4b e1 81 3f ad c1 d6 3e c3 c7 0f 3f 10 fa 87 be
       1.0146879 0.41944638 0.5616419 -0.2655797
000290 65 b7 ba 3e 58 da 07 3f bb 3c 2a bf b3 b9 d2 3e
       0.36468044 0.5306754 -0.6649892 0.41157302
0002a0 6b 94 a6 3e d5 bc 9b be 6e 9f c2 bd fa a5 ac be
       0.3253511 -0.30417505 -0.09503065 -0.3372038
0002b0 25 cc 3e bf 27 48 ca 3e 59 12 d5 be 50 f2 3d bd
       -0.7453025 0.39508173 -0.4161556 -0.046373665
0002c0 ae 06 5a be 11 44 d8 3e e0 f6 12 3e d5 03 96 3e
       -0.2129161 0.4223943 0.14351988 0.292998
0002d0 b3 41 9c be 7d 80 9f 3e 6a c6 01 bf 14 04 a1 3e
       -0.30518875 0.31152716 -0.5069338 0.31448424
0002e0 2e 79 ce 3e 2a 2d fd be 3f 43 95 3e 31 06 c6 3e
       0.40326828 -0.4944852 0.29152867 0.386766
0002f0 2d c6 22 be 1c 8f 2b 3f ca d7 ed 3e 5f 1d 24 be
       -0.1589591 0.6701524 0.46453696 -0.16026829
000300 18 8d c5 3e 60 99 84 be 3b b0 e9 be 7c 6d ba 3e
       0.38584208 -0.25898266 -0.45642266 0.36411655
000310 ca 98 52 bf d7 78 f2 be 36 d6 02 bf 99 26 36 bf
       -0.8226439 -0.47357818 -0.5110811 -0.71152645
000320 8e 26 0d 3f 13 20 96 be e2 0c a9 be 4c f1 22 3f
       0.55136955 -0.29321346 -0.3301764 0.6364944
000330 6e ad a5 3e 71 3c 67 be cf a8 56 be 1c 2d 2c 3f
       0.3235888 -0.2258165 -0.20962833 0.6725633
000340 1c ab 07 bf 86 38 00 3f d5 21 77 3f 7e 91 ab be
       -0.5299547 0.5008625 0.96536 -0.3350944
000350 88 1f 0f 3f 49 ed 1e 3f 87 e5 b6 3e 9d 83 38 3f
       0.5590749 0.6208082 0.3572199 0.72075826
000360 2c 63 11 3f 98 12 03 bf b2 50 04 be 3b 02 de be
       0.5679195 -0.51200247 -0.12921408 -0.43361077
000370 43 61 9f 3e 78 ca 14 3f cd a6 2d be 17 17 c1 3d
       0.31128892 0.5812144 -0.1695816 0.09428232
000380 c9 25 a1 be d9 91 44 3f fc ac 2f 3e dd ee c7 3e
       -0.3147414 0.76785046 0.17155832 0.39049426
000390 8e fe ed be ad c5 01 3f 9a 18 4d bf 0a cb e5 3e
       -0.46483272 0.50692254 -0.80115664 0.4488147
0003a0 17 bc 1a 3f 71 35 1f bf 21 ea d6 3e 42 90 0a 3f
       0.6044325 -0.6219092 0.419755 0.5412637
0003b0 6a 9d 6a be 4d 3c 84 bd 2f 16 23 3f 8c 93 63 be
       -0.22911611 -0.06456814 0.63705724 -0.22224253
0003c0 79 01 46 3e 08 9f 23 be 67 07 6f be d4 16 44 3e
       0.193365 -0.15978634 -0.23342668 0.19149333
0003d0 cd 2d 73 3e a6 3d 6f be 1c 9f 8a be fc c7 b4 be
       0.2374794 -0.23363361 -0.27074516 -0.35308826
0003e0 a0 94 77 3e 55 d8 c9 bd ea 32 1c be 35 60 93 3e
       0.2417779 -0.09855715 -0.15253797 0.28784338
0003f0 b2 0c fc 3d 64 fe c3 bd c7 2f 19 be 19 3b 9c 3d
       0.12307109 -0.095700055 -0.14959632 0.076284595

model_1/block_3_project_BN/FusedBatchNormV3 f4 [16]
000000 b0 2f eb c1 ae d1 97 40 b4 71 82 3d 1a 42 2b c1
       -29.398285 4.7443457 0.063693434 -10.703638
000010 91 6e 64 3f fb d9 fb c0 e8 a0 1f c1 01 c3 c6 c1
       0.8923121 -7.870359 -9.976784 -24.845217
000020 ff 2d 1f 40 48 79 7e 41 64 c6 01 42 3a 56 f5 c0
       2.4871824 15.90461 32.44374 -7.6667757
000030 c3 aa 92 c0 21 d3 df c1 08 e2 b5 41 31 20 ef c1
       -4.583345 -27.97809 22.735367 -29.890718
